our_model.tar (torch, 2144 bytes, 3 tensors)

linear1.weight f4 [4, 2]
000000 6b f0 f2 3e b7 b8 ff 3e 2a 19 41 c0 42 f2 4a c0
       0.4744905 0.49945614 -3.017161 -3.1710362
000010 e6 44 11 c0 da 70 61 40 01 aa 42 c0 50 24 b1 3f
       -2.2698302 3.522513 -3.0416262 1.3839207

linear1.bias f4 [4]
000000 f7 87 06 bf fa 86 81 3f 35 a7 4b 3f 90 d2 88 bd
       -0.52551216 1.0119317 0.7955201 -0.066807866

linear2.weight f4 [1, 4]
000000 31 bd 44 bf a0 21 90 c0 e5 20 89 c0 8c da 85 40
       -0.76851183 -4.5041046 -4.2852654 4.182928
