saved_models/tutorial8/MNIST/lightning_logs/version_0/checkpoints/epoch=12-step=6084.ckpt (torch, 313778 bytes, 11 tensors)

cnn.cnn_layers.0.weight f4 [16, 1, 5, 5]
000000 ad c1 5e 3d fe e0 b6 3d ce a0 ba 3c 26 8a 14 3e
       0.054383922 0.089296326 0.022781756 0.14505824
000010 df 32 aa bb 1d fa 15 3e 28 69 a3 3c 23 6a 3f 3e
       -0.0051940526 0.14646192 0.019947603 0.18692832
000020 cb 80 3e 3e 20 30 69 bc 87 23 50 3e 8d 9c 16 3e
       0.18603818 -0.014232665 0.20326053 0.14708157
000030 74 8b 3f 3e 00 3c 1b 3e a2 a7 8f 3d f0 95 de 3b
       0.18705541 0.15159607 0.07014395 0.0067927763
000040 e6 7e cc 3d c2 0a c4 bc 80 31 df bd a9 e0 34 bc
       0.099851415 -0.023930911 -0.10898113 -0.011039891
000050 0b fe df bd 54 34 04 be 4f 36 d2 bd 9a d4 28 3c
       -0.10937127 -0.12910587 -0.10264265 0.010304594
000060 35 de 17 be aa 81 98 bd 74 a9 ce bd 9f 10 1a be
       -0.14830859 -0.074466065 -0.10090914 -0.15045403
000070 5c 98 0a be 06 ca 63 be 44 8d 82 3d 77 63 8d bd
       -0.13534683 -0.22245035 0.063746005 -0.06903737
000080 f1 0e 90 3d 65 49 14 bd 6d 0c 9e bd 7b 62 a6 3d
       0.070341 -0.036202807 -0.07717214 0.081242524
000090 04 f7 0f 3e c5 13 87 3e 34 85 28 3e 33 42 a4 3c
       0.14059073 0.2638227 0.16457063 0.020051097
0000a0 e1 74 85 3d b4 1c d9 3d 2f c7 4a 3e d3 a2 62 3e
       0.065164335 0.10601178 0.19802545 0.22132425
0000b0 9f 19 09 3e 81 61 4c 3c 29 cb 05 3e b8 d7 12 3e
       0.1338868 0.012474419 0.1306578 0.14340103
0000c0 23 10 14 3e 59 6a 46 bd 95 f2 48 be 86 99 c6 bd
       0.1445928 -0.048441265 -0.19623788 -0.09697251
0000d0 02 92 13 be 20 78 01 3e eb 4e 64 3c bb 05 54 3d
       -0.14411166 0.1264348 0.013934831 0.051763278
0000e0 ae 03 43 3d 81 83 22 3c b9 2e 12 3e f8 ee 2a be
       0.04761093 0.009919048 0.14275636 -0.16692722
0000f0 7a c5 76 3d 35 cd 80 bd 72 ab 0b 3e 46 e4 82 bd
       0.060246922 -0.0628914 0.1363962 -0.06391196
000100 5d e2 98 3c 7d 93 aa bc ce 55 3f 3e 29 9d 9c bd
       0.018662626 -0.020822281 0.18685076 -0.076471634
000110 96 f9 25 be 37 fc 14 be 72 d6 36 3e 26 7a aa 3d
       -0.1620849 -0.14549337 0.17855242 0.08324079
000120 87 4e 2b 3e d4 fb 3a be 7b e6 85 be 8b 2a 42 be
       0.16729175 -0.18260127 -0.26152405 -0.18961541
000130 27 a9 43 be 30 50 20 3d d7 b0 1a 3d 33 53 33 3e
       -0.19107495 0.039138973 0.037766304 0.17512207
000140 b8 12 2e be 50 6b 25 be 9c 6e d7 3d 61 ca a4 3c
       -0.16999328 -0.16154218 0.10519144 0.020116033
000150 6e 13 3e 3e 0a 75 dc bd 97 ed ce 3d 07 12 b5 bc
       0.185621 -0.10764511 0.101039104 -0.022103323
000160 e2 5f c5 3c 57 cc 2e 3d 70 f5 39 3d 75 ad 35 3d
       0.024093572 0.042675342 0.045400083 0.044354875
000170 14 b5 5c 3e 41 f8 f2 3d bb 20 0d be 85 34 41 bd
       0.21553451 0.11863757 -0.13782017 -0.047169227
000180 aa 32 65 3e dc ff 1e bd e2 f2 68 bd 93 fc 3f be
       0.22382608 -0.038818225 -0.056872256 -0.18748693
000190 4a 15 c2 bd 41 a8 f5 3c 26 e5 56 bd 82 51 14 be
       -0.09476717 0.029987456 -0.052464627 -0.14484218
0001a0 a9 60 ba bb 7f df b9 bd f1 c5 34 be c7 8a 0c be
       -0.0056877923 -0.090758316 -0.17653634 -0.13724814
0001b0 d9 94 62 be b2 10 2f be 5f 1d 28 3e fa f3 1b 3c
       -0.22127093 -0.17096213 0.16417454 0.009518618
0001c0 a3 7a 08 bc 39 24 6e be 4d 79 2c be 17 f1 45 bd
       -0.00833002 -0.23256005 -0.16843148 -0.048325624
0001d0 4e 10 35 bc ba 8e 40 be 73 ea 0e be 18 6f 09 be
       -0.011051251 -0.18804446 -0.13956623 -0.13421285
0001e0 d9 83 50 3c 9b ac ab bd 86 94 04 bd 9f 93 0e be
       0.012726747 -0.08382531 -0.032368205 -0.139235
0001f0 3b cc f6 bd 0d 9c 03 be ef bc 27 bd 34 8b d2 bd
       -0.120506726 -0.12852497 -0.040951665 -0.10280457
000200 70 ce 1e 3e 40 b8 ab bd 7b 63 0f 3e 79 3f 19 3e
       0.15508437 -0.08384752 0.14002793 0.14965619
000210 ce ab e9 bd f2 72 2a 3e de f7 cd bd 6f de 35 be
       -0.11409722 0.1664541 -0.100570425 -0.17760633
000220 b3 dd 3c bd 15 20 51 be 26 c8 17 3e e8 c5 cc 3c
       -0.046109866 -0.20422395 0.14822444 0.024996713
000230 22 4c 22 3e 59 da 2f be 59 7a 56 3e 9f f4 80 be
       0.15849355 -0.17173137 0.2094511 -0.2518663
000240 75 57 36 3d da db 3e bd eb 64 06 bc 91 5f 96 3d
       0.044517 -0.046596386 -0.008202772 0.073424466
000250 80 f5 3c 3e c7 b6 e8 bd 0a 5d 3f bc 06 6c 9a bd
       0.18453026 -0.11362987 -0.011679897 -0.07540135
000260 a6 99 88 3c 98 6b 98 bd 55 3a 2d 3e 05 c0 46 bd
       0.016674828 -0.07442397 0.16916783 -0.048522968
000270 07 8d 16 3e 1e 4f f4 3d 0f 03 f0 3d 28 72 1f 3c
       0.14702235 0.11929153 0.117193334 0.009731807
000280 6e 9e 12 3e 66 a8 c4 3d f7 44 ac 3d 24 ef 9e bd
       0.14318249 0.09602432 0.084115915 -0.07760456
000290 05 24 b0 3d 9f 86 64 3d 9e 3b b4 3b 82 28 11 3e
       0.0860062 0.055792447 0.005500271 0.14175609
0002a0 33 99 84 3b 31 67 d5 bd b0 8a 23 bd 2a 6e 99 3c
       0.004046583 -0.10420073 -0.039927185 0.018729288
0002b0 cd ae 9d 3d ad fa c8 bd 95 a6 13 be d6 f0 49 bd
       0.07699356 -0.098134376 -0.14419015 -0.049301945
0002c0 7e 6f 9e bc f4 d6 c8 3d 40 a9 d1 3c ad 70 05 be
       -0.019340273 0.09806624 0.0255934 -0.13031264
0002d0 b1 ed 52 3d 21 42 3a 3e bd fc fc 3d 5b c9 38 3d
       0.05149621 0.18189289 0.123528935 0.045113903
0002e0 ab 8a 2b 3d 72 86 1c 3d fb 72 40 3e 47 f9 19 3e
       0.04188029 0.038214155 0.18793862 0.15036498
0002f0 f6 a6 0a 3e 30 d5 c6 3d ce 1a b9 bd cd f6 44 3d
       0.13540253 0.09708631 -0.09038316 0.04808693
000300 df 83 2d 3e 80 00 7f 3e df 6a c2 3d 0c 27 13 be
       0.16944836 0.24902534 0.0949304 -0.14370364
000310 d0 62 a1 bd b1 fe e2 3c fa 06 a6 3d 42 81 fa 3d
       -0.07880175 0.027709337 0.081067994 0.12231685
000320 ce f3 05 be 66 f2 ac bd 1c 8d 16 3e 63 75 4e 3d
       -0.13081285 -0.08444671 0.14702266 0.050404917
000330 9e 4d d9 bc fc f8 e6 bd 47 a6 2d be 6c b2 39 be
       -0.026526269 -0.11277959 -0.16957961 -0.18134469
000340 07 8c e0 bd 65 6f 87 3c a7 e0 be 3d f4 3f 1a 3d
       -0.10964208 0.01653261 0.09320193 0.037658647
000350 72 72 62 be a5 7f 32 be e2 f7 af bd a5 f0 0c 3e
       -0.2211397 -0.17431505 -0.08592202 0.13763674
000360 58 d6 e8 bc c0 82 7f bd 75 e9 1b 3d 85 f2 d7 bd
       -0.02842252 -0.062380552 0.03806444 -0.10544304
000370 04 98 01 be eb ad ef 3d 03 99 fa bd 05 58 81 bd
       -0.12655646 0.11703094 -0.12236216 -0.063156165
000380 77 3a 3e be 3e bf 09 3e ac 97 18 3e a5 a3 b4 3d
       -0.1857699 0.1345186 0.14901608 0.08820275
000390 60 4d bd bd 9d 7d 3a be 69 b4 99 bd bd f0 18 3e
       -0.09243274 -0.1821198 -0.07505114 0.14935584
0003a0 e3 ae ad 3d 3e 6d 84 3d f9 23 d5 bb 25 a3 67 3d
       0.084806226 0.06466149 -0.0065045324 0.05655207
0003b0 cd 27 b2 bc 38 75 4d be 27 0f 6f be b8 f6 76 be
       -0.021747494 -0.20064247 -0.23345624 -0.24117553
0003c0 f8 12 11 3d 03 b4 19 be ed 8f e6 bd 02 93 26 be
       0.03541848 -0.15010075 -0.112579204 -0.16267017
0003d0 3d 3f cb bd a3 6f 28 be a5 e5 35 be d2 b4 bc bc
       -0.09924171 -0.16448836 -0.17763384 -0.02303544
0003e0 44 f2 c3 bd 45 0c 7b 3d b9 0c 41 bd 71 7f 1d be
       -0.09567693 0.061290998 -0.047131274 -0.15380646
0003f0 7a 8a a7 3c d7 db e7 bd 09 82 d0 3c 3e 38 71 be
       0.020451773 -0.11321228 0.02545263 -0.23556611

cnn.cnn_layers.0.bias f4 [16]
000000 4e 31 ee bd 63 f2 df 3d 0f 97 8c 3d 25 d2 28 3d
       -0.11630498 0.109349035 0.0686475 0.041216034
000010 ed 25 c3 bd 1c 71 18 be d6 86 90 be b2 29 11 be
       -0.09528718 -0.14886898 -0.28227872 -0.14176062
000020 c6 4b 0f be d0 27 ef 3c d7 12 39 bd 53 6e fc bd
       -0.13993749 0.029193789 -0.045183983 -0.1232573
000030 55 22 82 3e 80 45 e8 3c 9f d0 d5 3d df 46 ac ba
       0.25416818 0.028353453 0.10440182 -0.001314368

cnn.cnn_layers.2.weight f4 [32, 16, 3, 3]
000000 d8 49 82 bc 13 6e 7c 3c 34 ec 52 bd d2 c5 57 bd
       -0.015904352 0.015407103 -0.051494792 -0.05267889
000010 a1 81 6a 3d 46 8d 11 bc 63 5b 42 bd d6 55 8a 3d
       0.05725253 -0.00888378 -0.047450434 0.06754653
000020 71 e7 a9 3d 10 20 f3 bb 06 6b 35 bb 9b 32 94 bd
       0.08296097 -0.0074195936 -0.00276822 -0.07236215
000030 33 1d 2e bd ec c8 95 3c 17 a6 4d 3d fe 1d 92 3c
       -0.042508315 0.018284284 0.050207224 0.017836567
000040 f4 e1 f9 ba c4 27 5e 3d d7 12 5a bd fc ef 8b 3c
       -0.0019064532 0.054237142 -0.053240623 0.017082207
000050 a8 b6 c3 3b 82 f3 d4 bb 13 ca 04 bd a0 9f 21 3c
       0.005972702 -0.006498755 -0.032419275 0.009864718
000060 fc aa f1 3b 53 0c 90 3d 43 83 20 3d f9 b7 3c 3d
       0.0073751193 0.07033601 0.03918768 0.046073887
000070 2f a9 a5 3d ca f8 2e 3c 01 6a 46 bd a0 a2 c0 3d
       0.0808891 0.010679433 -0.048440937 0.09406018
000080 47 67 d0 3d 5d 37 1a bd 3c c4 a7 3c bc 83 f3 3b
       0.101759486 -0.037650455 0.020479314 0.0074314754
000090 7b 23 33 bd f8 3e e7 3c 56 58 25 3d 19 2c 32 3d
       -0.04373501 0.028228268 0.040367447 0.043499086
0000a0 1d b7 2a bc eb 69 b3 3d 18 58 2e 3c e9 24 3d bd
       -0.010419634 0.087604366 0.01064112 -0.04617778
0000b0 e7 50 d6 3b d9 25 e3 3c e4 4f 84 3d 90 3e 22 bd
       0.006540406 0.027728008 0.064605504 -0.039610445
0000c0 13 4e 16 3d 95 26 a0 bc c6 0c 57 3c 17 4e 0b bc
       0.03669555 -0.019549647 0.013125604 -0.008502505
0000d0 f3 9e 7b 3d 27 54 28 3d 35 b4 3e 3d 7f 46 22 3d
       0.061430883 0.04109588 0.046558578 0.03961801
0000e0 91 5d 8d 3d 1a f6 48 3d c9 39 83 3c 20 98 ce 3d
       0.06902612 0.049062826 0.016018765 0.10087609
0000f0 9b 38 80 bc c1 6a 36 bd b2 2d 6d 3c 6d 8b b7 bc
       -0.015651992 -0.044535402 0.014476227 -0.02240535
000100 3f 82 85 bb d4 bd 07 bd be b5 84 bd 08 4c 89 bb
       -0.0040743644 -0.03314002 -0.06479977 -0.004189972
000110 fa fd 15 bd a0 f9 21 bd 7c 90 64 3c ce 65 49 bc
       -0.036619164 -0.0395447 0.013950463 -0.012292339
000120 dc e6 88 3d e8 89 bb 3d 12 1a fe 3c d0 33 3c 3d
       0.06684658 0.09157163 0.03101829 0.04594785
000130 63 02 d8 3c cd db 02 3c a2 6d 1a bd 34 3c 86 bc
       0.026368326 0.007986975 -0.03770221 -0.016386129
000140 7b 1c cc 3c 1d 62 b4 3d 48 98 3e bc 16 09 36 bc
       0.024915924 0.08807776 -0.011632986 -0.011110565
000150 00 35 f9 3b 4c e6 11 bc e0 b0 40 3d 52 f6 55 3d
       0.007605195 -0.008905005 0.04704368 0.052236862
000160 03 ec b0 3d 0a a2 8c 3d 88 68 79 bd c0 6a 68 bc
       0.08638766 0.06866844 -0.060890704 -0.014185607
000170 f0 e6 15 3d e3 50 fa 3c 41 34 4d 3d 9b 11 2f bd
       0.036597192 0.030556148 0.05009866 -0.0427414
000180 f4 ce 63 3d 28 c8 ab bc 96 06 88 bc ad 12 54 bd
       0.055617288 -0.020969465 -0.016604703 -0.051775623
000190 59 f9 b1 3d 73 55 61 bd 1c 20 bc 3d 4f 85 3b 3c
       0.086901374 -0.05501313 0.09185812 0.011445357
0001a0 33 cd 17 3c 37 46 53 3d 3c 08 07 bc af 4b 8c 3d
       0.009265232 0.051580634 -0.008241709 0.06850373
0001b0 95 0e 06 3d 18 b6 9b bd 0c 73 dd 3c 2a 8a 93 bc
       0.03272875 -0.07603091 0.027032398 -0.018010218
0001c0 4c 75 a7 bc 91 7f c3 b8 f1 42 91 3c df ac 53 bd
       -0.020441674 -9.322086e-05 0.017732115 -0.051678535
0001d0 84 20 3b bd db e9 93 3d 91 4b 99 3d 20 4e 30 3c
       -0.045685306 0.07222339 0.07485116 0.010760814
0001e0 46 13 6c bd b1 b7 85 3c fb ad 4c bd 57 8b 7a 3d
       -0.057635568 0.016322942 -0.04997061 0.06116804
0001f0 0a d1 0f bd b1 bf 43 bb e1 40 cf bb 6b c9 48 3c
       -0.035111465 -0.0029868896 -0.006324873 0.012255053
000200 b9 76 74 3d bc 79 1c bc 5f 43 fe 3c bf 65 22 3d
       0.059683535 -0.009550508 0.031037984 0.039647814
000210 c7 e3 6c 3d 19 ee f3 3b 7e 79 36 bc e1 de 2d 3d
       0.057834413 0.007444155 -0.011137364 0.042448882
000220 06 66 a1 bd a9 56 84 3d 7b 8d 55 bd 82 e7 5a bd
       -0.078807876 0.064618416 -0.05213688 -0.05344344
000230 5f 33 74 3d 86 47 d6 3a 5b 8b 5e bc a6 05 86 3d
       0.059619304 0.001634822 -0.01358303 0.06544046
000240 48 c1 48 3d 75 92 54 3d d7 69 0e bc a6 85 bd bd
       0.049012452 0.051897485 -0.008692226 -0.09254007
000250 ba 6e 90 bd d6 61 1b bd 72 5d c9 bd 7a 9c ae bd
       -0.070523694 -0.0379351 -0.098322764 -0.08525939
000260 c5 02 bf bd 74 35 82 bd a8 28 42 bd 31 65 89 bd
       -0.093267 -0.063578516 -0.047402054 -0.06708754
000270 6d 4d a5 bd 3f b8 5f bc 1e 0d b0 3d c5 2f c5 bc
       -0.080714084 -0.013654768 0.08596252 -0.02407063
000280 e6 11 d4 bc 2d b9 26 3d 66 d5 12 bd ca 5b 15 bd
       -0.02588744 0.04070394 -0.035848044 -0.03646449
000290 bb 86 15 3d 38 0a a1 bd ea 6f 46 bc 06 cc b3 3d
       0.036505442 -0.07863277 -0.012111643 0.08779149
0002a0 1e 75 43 3c 2a bb 3a 3d bf 27 04 bd 69 93 d8 3a
       0.011929778 0.04558865 -0.032264467 0.0016523424
0002b0 c2 0a da bb e5 cb 4f 3d 99 57 c1 3c 72 11 58 3d
       -0.0066541145 0.05073156 0.02360134 0.052751012
0002c0 c3 5a 60 bd e2 e8 ed 3c fe f9 fe bc 64 d6 35 bd
       -0.054774057 0.029041711 -0.031125065 -0.044393912
0002d0 30 ef 27 3c b2 61 8d bd 58 1f 56 3d 81 54 47 3c
       0.010249898 -0.069033995 0.052275985 0.012166143
0002e0 1b 73 43 bd 93 ca db 3c eb 24 92 bd c0 37 1b bd
       -0.047717195 0.026829993 -0.07135948 -0.037894964
0002f0 09 f4 af bc 9e e3 ca bd 8f 19 42 bd 8d ea 58 bc
       -0.02147867 -0.09906696 -0.047387656 -0.013239515
000300 60 4b 46 3d b8 96 e0 3d 9f aa 0d 3d 91 fd 24 bd
       0.048411727 0.10966247 0.034586545 -0.040280882
000310 b3 2f a0 bc 14 5b 53 3d 76 34 99 3c e3 f2 b6 bc
       -0.019553995 0.05160053 0.018701773 -0.022332614
000320 89 58 04 3c 6a b8 af bd aa f2 68 bd 34 de 69 3d
       0.008077749 -0.08580096 -0.056872047 0.057096675
000330 84 db 06 bd c6 ad 28 bd b4 2f a9 bd 7a a7 3f bd
       -0.03292419 -0.04118135 -0.08261052 -0.046790577
000340 9d a6 b2 bc fb 37 8d bd f4 66 08 bd ce 31 ad 3c
       -0.021807963 -0.06895443 -0.03330131 0.021141913
000350 b7 e1 a6 bd da 81 19 3c 41 74 9c bd 6d 42 85 bd
       -0.081485204 0.009369338 -0.07639361 -0.0650681
000360 d3 87 4b 3d 61 a8 89 3d f2 a5 08 bd 47 fa 8f bc
       0.04969008 0.06721569 -0.033361383 -0.017575396
000370 a1 ee 9d bd 67 77 23 bd 76 62 80 bd 57 72 7c bc
       -0.077115305 -0.039908793 -0.0626878 -0.01540812
000380 65 7e d1 3c d1 20 9a bd 44 a3 80 3d fe f5 25 3d
       0.025572965 -0.075257905 0.062811404 0.0405178
000390 e8 56 7a bd 88 58 7b bd 3b ee 6e 3b bb 32 9a bc
       -0.061118037 -0.061363727 0.0036457914 -0.018823018
0003a0 dc 59 52 bd 70 69 93 bd 89 7d 5e 3d 7b c6 35 bc
       -0.051355228 -0.07197845 0.05431894 -0.011094685
0003b0 ac dd bd 3d b8 5c 9f bc 64 9b f4 3c 01 cd 95 3d
       0.09270796 -0.019453391 0.029859252 0.07314492
0003c0 dc 4b 4b bc 84 84 11 bd e2 f2 ad bb 38 c6 9d 3d
       -0.012408223 -0.035526767 -0.005308495 0.07703823
0003d0 ae 19 2d bd 61 5c b3 3c 88 db 74 bd 68 05 3e 3d
       -0.04226082 0.021894636 -0.059779674 0.046391875
0003e0 a0 5b 30 3d 4e 89 20 3c b7 1d 29 3d 9c cf 89 bb
       0.04305613 0.009798361 0.041288104 -0.004205657
0003f0 fb fa a6 3d 8a b6 a9 bc d0 0a 29 3c 3a de b3 3c
       0.081533395 -0.020716924 0.010317519 0.021956552

cnn.cnn_layers.2.bias f4 [32]
000000 f7 a5 d0 3c c2 5f 15 3e 8c 80 e5 3d 8f 91 98 bc
       0.025469763 0.1458731 0.11206159 -0.018624095
000010 a8 78 92 bd f1 33 3a bd 92 90 f4 bd ba e1 c4 3d
       -0.071519196 -0.04545969 -0.11941637 0.096133664
000020 43 04 dd 3d 94 e8 dc bd 8b bc 00 be ea a4 22 3d
       0.107918285 -0.10786548 -0.12571923 0.039708056
000030 b1 9d c7 bd 9c fa 10 3e 71 c3 01 be 30 91 75 3c
       -0.09746874 0.141581 -0.12672211 0.014988229
000040 5c 79 a7 bd 1d df 26 3e 59 b8 93 bd 1a 80 2b 3e
       -0.08177444 0.16296048 -0.07212896 0.16748086
000050 f9 22 68 3c ef 3e 01 3e e9 c5 15 3e d0 6b cd 3c
       0.014168494 0.12621664 0.14626278 0.025075823
000060 ad 0f 93 3c 8a 6f 97 bd f5 28 5d 3d e7 d5 e2 3d
       0.01795181 -0.07394321 0.053994138 0.11075955
000070 0d 15 1d 3e 47 7f b4 bd f2 8b f8 bd 62 3b 17 3c
       0.15340061 -0.08813339 -0.121360675 0.009230467

cnn.cnn_layers.4.weight f4 [64, 32, 3, 3]
000000 7e d6 fe bc e5 92 b5 3b 4c 8d 7a bb b3 55 e4 bc
       -0.031108137 0.005541193 -0.0038231192 -0.027872896
000010 4f ac 40 bd 5a b1 ab 3b 69 cd 1d bd 18 73 41 3d
       -0.047039326 0.005239648 -0.038525973 0.047228903
000020 01 d4 36 bc 2d 60 ff 3c 61 fb 9a bc 98 87 db bc
       -0.011158944 0.03117379 -0.018918695 -0.026798055
000030 46 12 b9 3b fc 58 16 bd ba d7 1d bd ae b6 91 bd
       0.0056479303 -0.036705956 -0.03853581 -0.071149215
000040 86 cf 9b bc 59 f9 3a 3a da 9f c8 3c 76 01 99 3a
       -0.019019853 0.00071324926 0.024490286 0.0011673409
000050 9b d4 17 3d 85 b0 4f 3d ad 02 ee 3c 64 d0 f1 bc
       0.03706799 0.05070545 0.02905401 -0.029518314
000060 d9 c3 17 bc 10 58 a8 bd 5c 61 af bd 97 63 19 3b
       -0.009263002 -0.082199216 -0.08563492 0.0023405307
000070 3c d6 70 3c 6d 38 9a bc 81 32 5a bd 5c fd 3e 3c
       0.014699515 -0.018825734 -0.05327082 0.011657085
000080 2e 9c a7 3b 49 76 23 bd 28 4d 06 3d f3 83 1f bd
       0.0051150536 -0.039907727 0.032788426 -0.038944196
000090 bd 41 4c 3d 7f f3 bc 3c a2 9b 1d bc 9f cc 54 3d
       0.04986738 0.023065327 -0.009619625 0.051952954
0000a0 b4 66 85 bd 23 3e f8 bc a1 57 f5 3c 86 f6 a2 bb
       -0.0651373 -0.030303067 0.029949011 -0.0049732355
0000b0 f6 34 ac bc c6 96 2c 3b 4c 41 57 3b cb 6f 28 3d
       -0.021021347 0.0026334985 0.0032845316 0.04112224
0000c0 69 dd 13 3d 27 0c 41 3c b1 78 1b 3c 93 d8 5b 3c
       0.036099825 0.0117826825 0.009489224 0.013418335
0000d0 f0 68 32 3c 4d 13 57 3c 50 2b fa 3b e2 8b 36 3d
       0.010889277 0.01312716 0.007634558 0.044566996
0000e0 e1 bd 12 3d eb 95 dd 3a 7b 03 46 3d 5a 69 43 3c
       0.035825614 0.0016905641 0.048343163 0.011926973
0000f0 72 ce cb 3c cd 7d 93 3d 39 19 0d bd 73 ef de ba
       0.024878714 0.07201729 -0.034447882 -0.0017008617
000100 36 eb b3 bc 48 ac 6c bd 00 44 7d bd bb 4c d9 bc
       -0.021962743 -0.057781488 -0.061832428 -0.026525846
000110 3f bb 19 3d 32 dd 35 bd d0 a5 71 bb a4 6e 02 3d
       0.037532087 -0.0444004 -0.0036872514 0.031843796
000120 6f 88 4f bd d9 22 f4 3c db fd 43 3a 01 67 8e bd
       -0.050667223 0.029801773 0.0007476487 -0.0695324
000130 75 23 3e bd 17 b9 8c bd 88 b6 f7 3c 80 9f d7 3c
       -0.046420533 -0.068712406 0.030238405 0.026321173
000140 05 fa 4a 3c ae 16 4f 3d 30 85 80 3d 6e a6 90 3d
       0.012388711 0.05055874 0.062754035 0.07062994
000150 42 80 1c 3c 56 d9 2e bd 7d 85 35 3d 82 ab 9b 3c
       0.009552063 -0.042687736 0.044316757 0.01900268
000160 e7 3a 3d bb cd f6 6e bc ac e9 23 3d 8f 10 e0 3c
       -0.002887422 -0.014585209 0.04001777 0.027351646
000170 19 7b 34 3d ee cc 41 bb 29 31 82 3d 69 64 b6 bc
       0.044062708 -0.002957161 0.06357033 -0.022264676
000180 d3 cd bb 3c 8b 9f e7 3c 76 dc 8d 3c 8b 1f 51 3d
       0.022925293 0.028274318 0.017317038 0.051055472
000190 3c 0d 48 3c e9 52 87 3c 39 d6 1b 3d 1b 02 e1 bc
       0.012210187 0.016519027 0.038046096 -0.027466824
0001a0 99 b5 7a bc 6e 56 52 bd 60 7f 69 3b ad 87 c5 bc
       -0.015302085 -0.051351957 0.00356289 -0.024112547
0001b0 9a d0 0b 3d be 5f 22 3d b2 50 3d bd 2e 01 27 bc
       0.034134485 0.039642088 -0.046219535 -0.010193152
0001c0 5e 38 99 3d 7d 3d 90 bb 4a ba 85 3d 99 36 bd 3d
       0.07481454 -0.004401861 0.065296724 0.09238929
0001d0 33 ca 66 3c 8a 1a 39 bd 76 bf 03 3c 83 f0 ac 3c
       0.014086294 -0.045191325 0.008041253 0.021110779
0001e0 58 c7 41 3d 42 f8 99 bc c8 fd 91 bb 32 cf 31 bd
       0.04730925 -0.018795136 -0.004455302 -0.043410487
0001f0 4e 9e 03 3c 03 32 91 bb e7 68 4a 3d 70 e1 47 bc
       0.008033348 -0.0044310107 0.04941645 -0.012199745
000200 ff b9 e0 bb 2f 51 59 bd 6e ab 1f bd 29 21 34 3d
       -0.00685811 -0.05305594 -0.038981847 0.043976936
000210 02 ae 6a 3c f2 25 37 3d ed a6 fa 3b 1b c3 63 bb
       0.014323713 0.04471392 0.0076492936 -0.0034753743
000220 5e b2 bc bc 07 94 02 3d b3 93 18 bd cd d2 34 bb
       -0.02303427 0.03187945 -0.037250232 -0.0027591467
000230 53 22 40 3d 45 3c ca 3c 65 5d b1 bc a4 f0 00 3d
       0.046907734 0.024686942 -0.02165098 0.031479493
000240 c7 20 1d bd 38 c3 ed 3c 8e fa 83 3d e6 66 bf 3a
       -0.038361337 0.029023752 0.06444274 0.001460281
000250 2d e0 d8 3b db 72 72 bd 2c 27 a8 bc e9 0a 83 bc
       0.0066185207 -0.059191566 -0.020526491 -0.015996413
000260 92 63 16 bd d2 39 25 bd 32 c3 0b 3d 20 b5 28 bd
       -0.03671605 -0.040338345 0.0341217 -0.04118836
000270 6a 56 77 3d 4a c7 8f bd cf d4 e4 3c 32 73 7b 3d
       0.060385145 -0.07020433 0.027933506 0.061389156
000280 d0 37 5d 3d 9b d0 29 bd 2e 56 75 bd 42 0c bb bc
       0.054008305 -0.041458707 -0.05989664 -0.022832993
000290 f1 1a 66 3d 9f 4a df 3b 62 87 1e 3d ce 4f 2a bd
       0.056178037 0.0068143154 0.03870333 -0.041580014
0002a0 3f 35 1a bd f2 e3 30 3d 8a 59 e1 3c 20 6c 3b bd
       -0.037648436 0.043186136 0.027508516 -0.045757413
0002b0 29 5c 08 3d bd 3a 7c bd 75 24 2d bd 23 da 8b 3c
       0.033291016 -0.061579455 -0.042271096 0.01707179
0002c0 62 d1 8e bc 96 a4 b4 bc d2 3e e4 bc 3e f6 f9 3b
       -0.017433826 -0.022051137 -0.027861986 0.0076282313
0002d0 96 17 cb 3c fd fc 0c 3d 7e ce a0 bc d4 f9 ea bc
       0.02479152 0.034420956 -0.019629713 -0.02868358
0002e0 42 04 c3 3b 67 86 4d bd b6 a9 c2 bc ed 30 38 3b
       0.0059514353 -0.050177004 -0.023762565 0.0028105334
0002f0 6e 1b 83 bd 5e d3 41 bd f7 8b 5d 3d c1 9f 01 3d
       -0.06401716 -0.047320716 0.05408856 0.031646494
000300 4d 52 1d ba 90 1a 02 bd 8d d7 da 3c b1 57 fa 3c
       -0.00060013385 -0.031763613 0.02671411 0.030559393
000310 fe 00 bd 3b 60 5f c2 3c 6a dd 90 3d bc 77 9d 3c
       0.0057679405 0.023727119 0.070734814 0.019222133
000320 f2 6e a0 bc 7b 06 07 bc 01 7b 50 bd cc 9b 83 bd
       -0.019584153 -0.008241291 -0.050898556 -0.064262
000330 81 8a 22 3d 4f 83 81 bd 1d 15 6c bd df 2f 70 bd
       0.03968287 -0.06323873 -0.057637323 -0.058639403
000340 61 60 fc bc e5 1c a9 3c 42 62 ec 3c 66 0c 93 bd
       -0.030807676 0.02064366 0.028855447 -0.07180099
000350 3e 86 2a 3c 84 35 2c bd 22 23 31 3c 73 0c 18 3d
       0.010407982 -0.042043224 0.010811599 0.037121248
000360 15 b0 ea bc 70 4f 90 bc 73 04 4e 3d 23 01 64 bd
       -0.028648416 -0.017616004 0.05029721 -0.055665147
000370 22 0a fe bc 07 28 62 bd ed 98 1a 3d 35 90 b5 3c
       -0.031010691 -0.055213954 0.037743498 0.02216349
000380 b8 de 92 bc 2b 09 42 3d 6a e7 97 3d 9c da 15 3d
       -0.017928466 0.047372025 0.074171856 0.036585435
000390 e0 e0 43 bd 4a 91 e3 bc b0 7f 69 3d 39 04 59 3d
       -0.04782188 -0.02777924 0.057006538 0.052982543
0003a0 89 70 32 3b 63 b0 49 3d 91 3d 3f bd 64 94 66 3c
       0.002722772 0.04924048 -0.046689574 0.014073465
0003b0 6a 9e aa 3c 7e b7 45 bc 49 9b 9b bd d2 d2 04 bc
       0.02082749 -0.012067674 -0.07597978 -0.008106904
0003c0 ff ce ce 3c 41 0d fb 39 f6 10 01 bd ee 35 13 bc
       0.025245188 0.00047884326 -0.031510316 -0.008985026
0003d0 a9 d1 17 bc d6 0c 4b bc c1 7d f6 3a b2 db e1 bb
       -0.0092662955 -0.012393197 0.0018805788 -0.006892645
0003e0 f2 d4 36 3d 2d db 11 3b 97 f1 0b bd ff 05 25 3d
       0.044636674 0.0022255883 -0.034165945 0.04028892
0003f0 5d db 18 bc 2f 4e d1 bc 97 16 de bc a0 c8 8f bb
       -0.009329644 -0.025549976 -0.027110381 -0.00438793

cnn.cnn_layers.4.bias f4 [64]
000000 65 19 9b bd 4b c5 84 bb 8f 73 13 3d ec 5e bc 3d
       -0.07573203 -0.0040518395 0.035998877 0.091977924
000010 22 a9 a9 3d 21 bd 9f 3d 9e 33 b7 3b fe ea 83 3d
       0.08284213 0.07799745 0.00559087 0.064413056
000020 c0 8b 9b 3d 2e 5b af 3b 6e 67 ae bd 9e b4 89 bd
       0.075950146 0.0053514456 -0.085158214 -0.06723903
000030 17 01 a2 3d 6b d4 8e bd 25 32 d6 3d 1c de 0a 3e
       0.07910364 -0.06974109 0.10458783 0.1356129
000040 ba 8a 07 bd 1b 1d bd bd f0 80 16 3d 44 f8 a6 bd
       -0.033091284 -0.09234067 0.036744058 -0.08152822
000050 ed 73 b7 bd 86 b4 c3 3d 6e 7f c6 bd 51 65 f4 bd
       -0.08957658 0.095559165 -0.09692274 -0.11933387
000060 dd db 7e bd 3d a8 17 3d f3 ee c8 3d 35 ef d4 bc
       -0.062221397 0.03702568 0.09811201 -0.025992969
000070 32 4c 99 3d 1e 69 d9 3d 6a 20 80 bd bf 98 58 3d
       0.07485236 0.10615753 -0.062561825 0.052880045
000080 84 a5 9a 3d 48 4f 83 bd 00 6e 0f bd 7f 5e d3 bc
       0.07551101 -0.06411606 -0.035017014 -0.025801895
000090 e3 a5 d8 3d 29 4c 23 bd 90 3f a3 bc 94 78 e8 3d
       0.105785154 -0.039867554 -0.01992777 0.113511235
0000a0 21 06 19 bd e1 44 99 3d 09 30 d1 bc f1 6c 62 bd
       -0.03735936 0.07483841 -0.0255356 -0.055279676
0000b0 69 76 9f bc 73 35 e3 3d 69 29 90 3d 33 82 f8 bc
       -0.019465642 0.11094179 0.07039148 -0.030335521
0000c0 12 10 be 3d 95 21 99 3d 57 22 54 bd 14 68 dc bc
       0.09280409 0.074771084 -0.05179056 -0.026905097
0000d0 63 21 c5 bd 21 9e 6b bd bd 5c b5 bd 14 d1 14 3b
       -0.09625509 -0.05752385 -0.08855579 0.0022707628
0000e0 f5 1a ad bd ef 25 83 3d 7c a2 ab bc cd a2 dc 3d
       -0.08452407 0.0640372 -0.020951502 0.10773239
0000f0 fe bd d1 3d ed 3f 63 3d 1a 5f 44 bd ee b1 15 3e
       0.10241316 0.055480886 -0.04794226 0.14618656

cnn.cnn_layers.6.weight f4 [64, 64, 3, 3]
000000 cc 27 11 3c 35 f3 f9 3a 6b 56 f2 3c cc df f5 3c
       0.008859586 0.0019069674 0.029582223 0.030013941
000010 c8 06 a5 3c 12 80 02 bc 21 eb 0c 3d 8c 5c ff bc
       0.020144835 -0.007965105 0.034403924 -0.03117206
000020 3e ca 37 bb 21 4e 23 bd dd 78 cd 3b 39 c9 a3 3c
       -0.002804413 -0.03986943 0.0062705115 0.019993411
000030 75 e4 21 bd b4 16 f3 bb 8f 89 98 3c 8b f6 e5 bb
       -0.039524514 -0.007418478 0.01862028 -0.0070179156
000040 6c be 34 3d 6d 1d bb bc 41 c8 81 3d 95 cd 32 3d
       0.044126913 -0.02284118 0.063370235 0.04365309
000050 09 f2 48 3d e6 c6 f6 3c 63 a4 a2 bc 70 64 a0 3d
       0.049058948 0.030124139 -0.019853776 0.07831657
000060 01 46 9d bc f8 cd 8c 3c e0 8b 9f bc 81 8e e4 bb
       -0.01919842 0.017188057 -0.019475877 -0.0069749956
000070 bd d5 28 3d b1 0a bf 3c 22 12 68 3b 01 aa 28 3d
       0.04121946 0.023320528 0.0035411199 0.041177753
000080 c1 51 29 3d 01 fe be bb 94 28 b9 3c d1 c9 5b bc
       0.041337732 -0.0058286195 0.022602357 -0.013414816
000090 02 27 31 bc e4 5b aa bb f1 f9 fb bc 93 29 17 bc
       -0.010812523 -0.0051989425 -0.03075883 -0.009226221
0000a0 b6 75 a1 3c db 52 c0 3b b5 a6 3c bd 0d 15 f4 bc
       0.01970945 0.005869252 -0.04605742 -0.029795194
0000b0 e4 93 d7 3c 07 1e 81 b8 d1 36 76 3c 87 dd 49 3d
       0.026315637 -6.1567924e-05 0.015027718 0.04928353
0000c0 ed 8d 9c 3c b0 3c d4 3c ff bc ab bc dd f0 c7 bc
       0.019110644 0.025907844 -0.020964144 -0.024406845
0000d0 3f ab 8f 3c b5 0c 19 3d 34 27 c2 bc c6 a6 3a 3c
       0.017537711 0.037365634 -0.023700334 0.011392301
0000e0 2d 6a 44 3d 58 7b aa 3c 09 02 d0 bb 67 0a 28 bd
       0.04795282 0.020810768 -0.006347899 -0.041025545
0000f0 41 5e b2 3c e2 d0 0a bc c3 c6 98 bc 7c cd 98 bc
       0.02177346 -0.008472653 -0.018649464 -0.01865267
000100 15 74 c3 3c b1 8c e2 3c 9a 8f 2a 3d a7 5a 74 3b
       0.023859063 0.027654978 0.041640855 0.0037285478
000110 ab ae e0 bb 10 7c 5d 3c ca 0a fb 3c 51 7f 9b 3b
       -0.0068567595 0.013518348 0.030644793 0.004745402
000120 e1 e2 da 3c 67 2f 2e bd ba 0a 9b bc 5f 09 97 3d
       0.026719512 -0.042525675 -0.018926013 0.07374834
000130 86 a0 d1 3c a5 3f ee bb d4 40 25 3d bb 86 0c 3c
       0.025589239 -0.0072707706 0.040345028 0.008577044
000140 fd 7d 09 3d da e4 0f 3d 06 46 12 3d c0 e4 c5 3c
       0.033567417 0.03513036 0.03571131 0.024156928
000150 6f c3 23 3c e0 6f 4a bd d0 e5 f0 bc 57 9d 88 3c
       0.0099953255 -0.0494231 -0.029406458 0.016676588
000160 44 0b 54 bd 58 6b 27 bd eb bc c5 bb 9d 87 29 bd
       -0.051768556 -0.040873855 -0.0060344837 -0.041389097
000170 7d ac bf bc b9 2d d9 3c 1d d3 9c bc 76 4f 31 bd
       -0.023397679 0.02651106 -0.019143635 -0.04328867
000180 c3 ef d5 bb 3d b6 3c bd ce 46 af bc d1 34 07 bb
       -0.006528826 -0.046072233 -0.021396067 -0.0020630846
000190 7e 42 27 3d d2 af 63 bd 56 83 52 3c 8c af a3 3a
       0.040834896 -0.055587597 0.012848696 0.001248823
0001a0 58 7f 1c bc 93 bb 50 3c 88 ee 72 3c b6 b6 f3 3c
       -0.0095518455 0.012740034 0.014827378 0.02975021
0001b0 13 85 21 bd 2a d3 da bb 7a fc 90 bc d7 3c 14 bd
       -0.03943355 -0.0066780047 -0.017698515 -0.036190834
0001c0 e3 7d 9a bc 60 08 47 3d f8 26 ee 3b aa c7 3e 3d
       -0.018858856 0.04859197 0.007267829 0.046577133
0001d0 42 3a 7c 3c bd 4e dc bb 87 80 39 3b fb 2a 7c 3c
       0.015394749 -0.0067232535 0.0028305368 0.015391107
0001e0 e4 51 0c bb 64 be 00 3c 47 0e a8 bc 57 23 14 3d
       -0.0021411115 0.007857893 -0.02051462 0.036166515
0001f0 77 5a 60 3d dc 9d 65 3c 07 2d 0c bd c7 ed 98 bc
       0.054773774 0.014014687 -0.03422263 -0.018668069
000200 ff ef a5 bc 22 ee e7 3c 0e 59 51 3d 40 27 da 39
       -0.02025604 0.028311793 0.05111032 0.00041609444
000210 9f 31 f8 bc f5 1a 39 bc b1 c5 99 3c 39 23 3e 3d
       -0.030297099 -0.011297931 0.018771024 0.04642031
000220 44 9f e0 3c 1c 76 d3 39 15 af d5 bc 90 23 12 3b
       0.027419694 0.00040333054 -0.026084462 0.002229903
000230 af 86 36 bc 73 64 ae 3c 7c 5f 39 bc dd 0a 77 bc
       -0.0111405095 0.021288132 -0.011314269 -0.015078274
000240 63 1d 09 bb bc ea d3 3c 7a 58 40 bc 11 b9 4e bc
       -0.0020922057 0.025868766 -0.011739844 -0.012617365
000250 c8 1b 22 3d b8 29 62 bc 7d 4b d1 3c 0d 97 f9 bc
       0.039577276 -0.013803892 0.02554869 -0.030467534
000260 2b 63 09 3c 0e d8 98 bc 88 7c 61 3d 3e d5 97 bd
       0.00838546 -0.01865771 0.055050403 -0.074137196
000270 f5 70 bd bc f1 b1 49 bc a7 e0 54 3b f6 3e fc bc
       -0.023125151 -0.012310491 0.0032482536 -0.03079174
000280 fd d1 54 bd 4c 42 48 bc e7 ef 1f 3b 59 00 a2 3d
       -0.051958073 -0.012222838 0.0024404468 0.079102226
000290 21 48 44 bc a7 b0 4b 3d 33 22 0d bd 63 74 54 3b
       -0.0119800875 0.049729016 -0.034456443 0.0032418005
0002a0 ed b0 43 bd ec c5 14 3d 87 82 38 3d 92 24 0a bd
       -0.04777615 0.036321566 0.045046356 -0.033726282
0002b0 52 04 70 bd 97 01 a2 3c ab ca a3 bc 06 0d 5c bc
       -0.05859787 0.019776149 -0.0199941 -0.013430839
0002c0 8d 4f 43 bd 33 53 2d bd 1f 9b c3 bc d5 89 37 bd
       -0.047683287 -0.042315673 -0.023877678 -0.04480918
0002d0 24 37 da 3c c9 6c 44 bd f5 2b 32 bc 95 de 4b bd
       0.026637621 -0.047955308 -0.010874738 -0.049772818
0002e0 44 75 e5 3c 9b 53 d4 3b 33 f0 d1 bc d9 a9 22 bd
       0.028010018 0.006479693 -0.025627231 -0.03971276
0002f0 08 49 e2 3b c5 0b 53 bc 79 b8 41 3d 55 c3 dd 3a
       0.0069056787 -0.012881224 0.047295067 0.0016919175
000300 82 6e 8a 3c 4b 42 4c 3d 98 ed 11 3d 3e 07 95 3c
       0.016898397 0.04986791 0.035626978 0.01819193
000310 8e 6f 06 3c aa 0b d7 3c c4 62 f8 3c cd 33 2c 3c
       0.008205308 0.026250679 0.030320533 0.010510397
000320 d3 b6 ce ba 59 26 d6 3c fc f1 ac bc 74 f1 33 bc
       -0.0015771039 0.026141332 -0.02111148 -0.01098286
000330 51 b2 e7 ba e9 ef 58 bc 23 0a a6 bc 15 f4 fc 3c
       -0.0017677044 -0.013240793 -0.020268505 0.030878106
000340 be a6 a7 bc b5 f1 12 bc bd af 17 bc 35 e3 71 bb
       -0.020465251 -0.00896876 -0.009258208 -0.0036909108
000350 bf d1 50 bc 5a c8 87 3c bf 5a de bc 20 bf 02 bd
       -0.01274532 0.016575027 -0.02714288 -0.031920552
000360 f3 5c cf 3c 6f 2d a6 bc 0a ba 9b bc e4 0a 1a bd
       0.025312876 -0.020285336 -0.019009609 -0.037608042
000370 19 d9 32 bc 84 58 c8 bb f7 5b 1d bd 0e 14 18 bd
       -0.010916018 -0.0061140675 -0.038417783 -0.0371285
000380 f8 cf 00 bb b1 94 43 3d 32 4d 59 3d 4c 46 6a 3c
       -0.001965521 0.047749225 0.053052135 0.014298987
000390 3f 78 09 3d f8 2e 2b 3d 60 16 06 bc 51 ed a5 3c
       0.03356194 0.04179284 -0.008184046 0.020254763
0003a0 55 2e 19 3d 0b e3 35 3b e3 86 f7 3c e4 c3 b3 bb
       0.0373977 0.0027753736 0.030215686 -0.0054859985
0003b0 eb 29 2d bc 02 78 72 3c 6d 75 77 3d fe 6f 59 3d
       -0.010569076 0.01479912 0.06041472 0.05308532
0003c0 c7 4a a5 bc 1a 50 8e bc 44 3a da bc 39 b7 11 3c
       -0.020177258 -0.01737218 -0.026639111 0.008893781
0003d0 64 ca 96 bc f8 fa f1 39 ea f8 5e bd a0 63 be bc
       -0.018407054 0.00046154088 -0.0544366 -0.023240864
0003e0 65 a8 45 3a 4f 46 38 ba 45 3a f4 bb f4 b3 1e 3d
       0.00075400464 -0.000702952 -0.0074532353 0.038745835
0003f0 7a 0d bf ba bf 32 b2 3c 6d 33 fa bb fa 9b fc 3c
       -0.001457616 0.021752713 -0.007635525 0.030836094

cnn.cnn_layers.6.bias f4 [64]
000000 30 14 87 3d 0a b5 84 bd 94 a0 6a 3d bc fc 6e bd
       0.06595647 -0.06479843 0.057282045 -0.058346495
000010 02 16 a3 bd c5 c8 a1 3d 3c dc a7 3d db 7b a6 3d
       -0.07963182 0.07899622 0.08196303 0.08129092
000020 06 5f a9 3d 56 11 45 3d 69 43 a3 3d 18 f6 6a 3d
       0.082700774 0.048112236 0.07971842 0.0573636
000030 9b 26 c9 3d 9f 16 8c bd e3 d2 68 3c e2 51 14 3d
       0.098218165 -0.06840252 0.014210436 0.036210902
000040 45 29 95 bd 37 8b 49 3d 5e 58 a4 3d 7d c3 7a bb
       -0.07283262 0.04920503 0.08024667 -0.0038263493
000050 e6 53 a9 3c a9 1a fc 3c 56 a3 eb 3d bb 10 cc 3d
       0.020669889 0.030774431 0.11505763 0.099641286
000060 7a 8a 05 3c 78 02 8e bc 5b 6b 25 3d dd 8f 5e bd
       0.008150691 -0.017335162 0.040385585 -0.054336417
000070 b0 30 b1 3c 41 82 be 3d 07 49 d3 3d 98 d2 a8 3d
       0.021629661 0.09302188 0.10316663 0.082432926
000080 b3 55 16 3d 24 f0 a2 3b 30 c6 98 3d ad 37 43 3c
       0.036702823 0.0049724746 0.07459676 0.01191513
000090 b3 6a 94 3d b8 b5 87 bd 78 65 ab bd 75 e2 99 3c
       0.07246914 -0.06626457 -0.08368963 0.018784741
0000a0 8f 68 39 bd 60 64 8f bc 58 7b 83 bb 14 ef 8f 3c
       -0.04526573 -0.017503917 -0.0040125065 0.017570056
0000b0 6a 56 15 bd 2f e5 16 3d 7b 18 04 3d cb 7e b5 3d
       -0.036459364 0.03683966 0.03224991 0.088620745
0000c0 7b 46 b2 3c 13 31 8e 3d 78 ef 3e bc 8d 5f a0 3d
       0.021762123 0.06942954 -0.0116537735 0.07830725
0000d0 32 30 20 3d 23 f6 9c 3d 61 b6 80 3d 2d 95 99 bd
       0.039108463 0.07664134 0.06284786 -0.07499156
0000e0 9b f1 cb bc 24 b9 47 3a 00 32 c6 3d dc 44 db bc
       -0.02489548 0.00076188357 0.096775055 -0.026766233
0000f0 ed e2 e2 3c ba ed 24 bd 13 12 d5 bd 54 67 00 bd
       0.027696097 -0.040265776 -0.10403838 -0.03134854

cnn.cnn_layers.9.weight f4 [64, 256]
000000 18 79 4a bd ae c0 0f 3b a2 6c 8e 3c 6f c2 f4 bc
       -0.04943189 0.0021934914 0.017385785 -0.02987787
000010 bf ba 1e bd bb de 3a bd 06 42 d0 3c 27 f9 a8 bc
       -0.038752314 -0.04562257 0.025422107 -0.020626618
000020 d8 7b 4f 3a 9b 81 78 3c 79 57 d2 3c dc 62 4f 3d
       0.00079148775 0.015167619 0.025676476 0.05063139
000030 00 9d 3a bd a9 d1 6c bc b7 c2 8d 3d 76 0b 27 3d
       -0.045559883 -0.014454284 0.069219045 0.040782414
000040 90 f8 66 3d ac 35 a6 3d 54 7d b8 3c d9 ce a8 3d
       0.05638939 0.08115706 0.022520699 0.08242578
000050 76 ea 3d 3d 39 3a 8a 3c 08 65 e4 bc ce 27 03 bd
       0.046366177 0.016873466 -0.027880207 -0.032020383
000060 c7 80 87 bc 9f fc 64 bd d6 59 81 bd c4 76 9f 3d
       -0.016540898 -0.05590498 -0.06315963 0.077863246
000070 25 29 79 3d 9b 78 ef 3c 08 11 5d 3d 82 09 23 3d
       0.060830254 0.029232314 0.05397132 0.03980399
000080 95 fd 31 3d 87 d6 37 ba 0f 62 0e 3d 0f 2d 4b 3d
       0.043454725 -0.0007012863 0.034761485 0.049603518
000090 07 9d a2 bb c8 5c 8c bc c5 ab 24 bc 31 48 f7 bc
       -0.004962567 -0.017134085 -0.010050719 -0.03018579
0000a0 6b da 31 bb c4 16 76 bd 49 0e 03 bd 7d ca 8b bc
       -0.0027138244 -0.060080305 -0.031996045 -0.017064327
0000b0 d5 49 29 3d 32 19 eb bc ce 86 01 3d ab c7 91 bd
       0.041330177 -0.028698537 0.0316227 -0.07118162
0000c0 e7 48 07 bd b4 1a f9 3c 34 2b 6d bc 2c 13 58 bc
       -0.03302851 0.03040824 -0.014475632 -0.013188165
0000d0 85 1a 79 3d 7d f7 42 3c 62 af 1d bd 69 c0 ae 3d
       0.060816307 0.011899826 -0.038497336 0.08532793
0000e0 f4 75 27 bd dd 16 78 bd 8e 1f 4b bc 95 a5 d7 bc
       -0.040883973 -0.06056868 -0.01239766 -0.026324073
0000f0 72 1f 3f bc 52 a4 a3 3c 2b be 2a bc 77 5b 30 3d
       -0.011665212 0.019975815 -0.010421316 0.043055978
000100 4e 04 49 bd 6f 29 0c bc 28 a4 18 3c de 7a 68 3d
       -0.04907637 -0.0085548 0.009316482 0.0567578
000110 58 5f 1f 3c 86 41 76 bd 8c a8 81 3d 27 31 69 bd
       0.009727322 -0.06012108 0.06330976 -0.05693164
000120 5f 0a 23 3d 60 3f 4d bd c3 3a 6d bd 4e 1c 36 bd
       0.039804813 -0.050109267 -0.057917368 -0.044460587
000130 8c 0c 23 3c f2 67 53 bd d3 8c 02 3c 57 d0 1a 3c
       0.009951722 -0.0516128 0.007968145 0.009449086
000140 96 2f 4d bd 26 10 f4 3b 5b c7 44 bd a7 e5 a0 bc
       -0.05009421 0.007448214 -0.048041683 -0.019640757
000150 3e cb 3e 3d 9c b4 55 bd 6a fd 0a 3c 42 78 11 bd
       0.046580546 -0.052174196 0.00848327 -0.035515077
000160 44 53 69 3c 12 17 60 3d a3 85 ff bc dd a3 36 bd
       0.0142410435 0.0547095 -0.031191653 -0.044589866
000170 43 d5 80 bd ab be 17 bd 82 19 8d bc e4 3f 06 bb
       -0.062906764 -0.03704707 -0.017224077 -0.002048486
000180 04 06 0b bd f5 b7 2f 3d 24 76 59 3d 20 9f 38 bd
       -0.033941284 0.042900044 0.053091183 -0.04507363
000190 2e 47 78 3d f5 c7 1b bd 50 8d a0 3d 6b 4f 65 3d
       0.060614757 -0.03803249 0.07839453 0.055983942
0001a0 a4 fe 23 3d 85 bc 77 3d 15 3c 84 3c 52 60 06 bd
       0.040037766 0.06048252 0.01614193 -0.032806702
0001b0 cf b2 ad 3c e7 b2 7a 3d 75 b0 83 3d db f5 60 3d
       0.021203427 0.06120577 0.06430141 0.054921966
0001c0 e7 41 6d bd d7 25 49 bb 50 cd 0e 3c c9 6d a1 3d
       -0.057924177 -0.003069272 0.0087159425 0.07882268
0001d0 35 17 d7 bc f5 7c 56 bd e8 33 ba bc ff 7b 13 bc
       -0.026256183 -0.052365262 -0.022729829 -0.009001731
0001e0 8e af b8 bc 02 54 7e bc dd 88 6a bb 64 0a 04 3d
       -0.022544648 -0.015522959 -0.0035787143 0.03223647
0001f0 65 58 17 bd 25 d2 f6 3b 1a 2f ed ba bd 6b b9 bd
       -0.036949534 0.0075323754 -0.0018095702 -0.090537526
000200 c7 95 4b 3d 11 cb 51 3d 3d 73 c8 bb f3 84 c3 3c
       0.049703386 0.05121905 -0.006117253 0.023867106
000210 75 d7 89 3c 74 17 e6 bc 0c 95 dd 3c e3 f6 d6 3c
       0.01682637 -0.028087355 0.02704861 0.026240772
000220 b4 1c 14 bd 82 07 6e 3d 31 82 bc bc cf f2 84 bd
       -0.036160186 0.05811263 -0.023011299 -0.064916246
000230 f3 c0 a7 3c c6 8f fd bb 9f a0 11 bd 95 c9 01 3c
       0.020477748 -0.0077380864 -0.03555357 0.007921596
000240 54 14 45 3d 9c 54 50 bd 8e 8c ba ba 0e 24 11 3d
       0.04811509 -0.05086194 -0.0014232562 0.035434775
000250 26 99 36 bd 90 a2 bb 3c 15 a3 9d 3c 7f 93 07 bd
       -0.044579647 0.022904664 0.019242803 -0.033099648
000260 2f 22 67 3d 21 00 70 3c cb 09 2f 3d ca 50 6c 3d
       0.056429084 0.014648468 0.04273395 0.057694234
000270 c1 37 b6 3c 53 f2 00 bd 41 8f c9 bc bd fc 0d bd
       0.022243382 -0.0314811 -0.024604442 -0.034664858
000280 46 b8 4e 3d 68 b0 42 bd 9c 65 5a 3d 9a b0 f9 3c
       0.050468706 -0.047531515 0.05331956 0.030479718
000290 b6 0a 54 3d fc 8d 8a bd d1 13 11 3d f6 dd 38 bd
       0.051768027 -0.067653626 0.03541929 -0.045133553
0002a0 d1 07 7e 3d 39 dc 13 bd c1 7a 1f 3d 51 95 f8 bc
       0.062019173 -0.036098693 0.038935427 -0.030344637
0002b0 16 75 0d 3d 4d 8c 4f 3b 29 e9 5d bc f1 a1 81 bd
       0.03453549 0.003166932 -0.013544359 -0.06329716
0002c0 da 3a 5f 3d 29 c5 e5 bc 33 43 91 3d 52 80 82 3d
       0.054499485 -0.028048115 0.07092895 0.063721314
0002d0 98 76 b9 3c 20 a4 86 bd f0 bb 76 bb 79 34 8e bd
       0.022639558 -0.06574273 -0.003764864 -0.06943602
0002e0 32 2c 5b 3c 65 8f 4e 3d 4b 50 42 3c 6f c6 82 3a
       0.013377236 0.05042972 0.011859964 0.0009977351
0002f0 f7 24 55 bc 1b db dd bc 39 d4 cc 3c 4d 2d 82 3b
       -0.013009301 -0.027082017 0.02500354 0.0039726854
000300 dc 6b 69 bc 3a 43 77 bd bf 98 0c bd 75 62 2c bd
       -0.014246907 -0.060366847 -0.034325358 -0.042086083
000310 3b 29 ac ba 1b 0b f8 bc 79 a5 13 3b af fe 06 3c
       -0.0013134846 -0.030278733 0.002252905 0.008239432
000320 7f 21 51 3b d4 ee 3b 3d bd 42 90 3d da dd 37 3d
       0.0031910834 0.04588206 0.07043979 0.04488931
000330 45 53 90 bd be e4 82 bd 63 a3 b4 bc a5 7e 83 bc
       -0.070471324 -0.06391285 -0.022050565 -0.0160516
000340 08 2a e8 3c b7 1d 93 bd d4 a3 52 3d ba 17 77 bd
       0.028340355 -0.07183402 0.05142577 -0.06032536
000350 f0 67 8a 3d 7c bb 22 bd 51 a8 6c 3c 4e 8c 18 3d
       0.06758106 -0.03972958 0.014444427 0.03724318
000360 48 aa c9 3c ac b3 2a 3d 13 d6 42 3d fd 58 4c bc
       0.02461733 0.041675255 0.04756744 -0.012472388
000370 60 f2 55 3b a8 4b ff ba 4a 21 50 3d 9e de ae 3c
       0.0032645687 -0.0019477503 0.050812997 0.021346387
000380 0b 74 65 bc d9 e5 bb bb bc 7a dd bc d2 a0 aa 3d
       -0.014004718 -0.005734187 -0.027036063 0.08331455
000390 8d e6 d2 bc 1d 57 e7 3c f2 a4 4c 3d c1 7c b8 3d
       -0.0257447 0.028239781 0.04996199 0.0900817
0003a0 de f7 51 3c 31 46 33 3c 30 63 2c bd 36 ce ee bc
       0.012815444 0.010942028 -0.04208678 -0.029151063
0003b0 53 84 ae bc 9c 45 18 3d 9a 47 f9 bb 81 d9 d2 bc
       -0.021303331 0.03717576 -0.0076074125 -0.02573848
0003c0 0f 09 42 3c f9 06 39 3c 0d dc 3c 3d 32 26 88 bd
       0.01184298 0.011293166 0.046108294 -0.0664791
0003d0 b8 fe d0 bb e9 a0 0a bd ca f0 6b 3d a3 29 8a 3d
       -0.006378021 -0.033844862 0.05760268 0.06746223
0003e0 43 5a 31 3b 8f d1 36 bd 4f ee 24 bc ef 59 cf 3c
       0.0027061857 -0.044633444 -0.010066583 0.025311438
0003f0 1a f6 d4 3c c0 5d cb bc cc 0a 36 3d 18 ae 0b 3d
       0.025996257 -0.024824977 0.04444389 0.034101576

cnn.cnn_layers.9.bias f4 [64]
000000 08 5b 13 bd 82 6d a1 bd e2 0a 8d bc 44 ba 92 bd
       -0.035975486 -0.07882215 -0.017217103 -0.071644336
000010 2e 87 4f bc 7b 53 4a bd e7 20 bd bd 8f e0 ad bd
       -0.012666507 -0.04939602 -0.09234791 -0.08490097
000020 d1 e1 19 3d 1b b0 43 3d 5f 57 5b 3d af cd da 3d
       0.03756887 0.04777537 0.05355012 0.10683762
000030 30 0f f1 bc 64 60 18 3d e8 3f 1e bd d4 60 b4 bd
       -0.029426187 0.0372013 -0.038635164 -0.08807531
000040 f5 b2 99 bd 06 4f 4a 3d 9c 7e 6d bd 91 50 c8 3d
       -0.075048365 0.04939177 -0.057982072 0.09780992
000050 30 7b 50 3c cf 9d 85 3d dc d8 e9 3c 44 0c 82 3d
       0.012724683 0.0652424 0.02854579 0.06349996
000060 15 f7 9b bd bd 50 a7 bb 88 a3 c7 3d f3 94 89 ba
       -0.076154865 -0.0051060603 0.09747988 -0.0010496661
000070 55 0a ed 3c e0 02 ac 3d 4f e9 59 3d de d5 99 3c
       0.02893559 0.08398986 0.053201016 0.018778738
000080 f7 a8 9b bc 74 86 b1 3c 4f c0 92 bd 08 46 31 3c
       -0.019001467 0.021670558 -0.07165586 0.010819919
000090 d7 1d a1 3d a8 24 8f bd 14 9f 29 bd 86 b1 58 bc
       0.078670196 -0.069894135 -0.041411474 -0.013225919
0000a0 55 42 f5 3b 86 79 5c bb e6 2c c1 bd 01 86 ec 3b
       0.007484714 -0.003364177 -0.09432392 0.007218123
0000b0 1b d8 0e bc 8e 7d 53 bd d6 43 24 3d 67 6e a1 3d
       -0.008718516 -0.05163341 0.040103756 0.07882386
0000c0 24 bf ac 3d f8 6e 8d 3d f2 77 c0 3b 4a b6 10 bc
       0.08434895 0.06905931 0.0058736736 -0.008832524
0000d0 2a b3 a0 bd a5 30 3a bc fa 95 54 3d 04 0c d4 bc
       -0.07846673 -0.011364137 0.05190084 -0.025884636
0000e0 e9 40 85 3d 43 77 e1 3d 8f 95 a3 bc 4c cb b7 bd
       0.06506521 0.110090755 -0.019968776 -0.08974323
0000f0 be fd 0e 3c 58 2b 92 3d a9 53 1c 3d fc 23 8e bd
       0.008727489 0.071371734 0.038165722 -0.06940457

cnn.cnn_layers.11.weight f4 [1, 64]
000000 1a 64 13 3e fe f2 13 3e 03 a4 2e 3d 2e 7b 15 3e
       0.14393654 0.14448163 0.042636883 0.1459777
000010 59 b0 1a be b2 92 8c 3d 4c 16 34 3d aa 55 0b 3e
       -0.15106334 0.068639174 0.043966576 0.13606897
000020 2c a4 d8 bd d7 3d bc bd f4 de 07 be 1b 01 ef bd
       -0.10578188 -0.091914825 -0.13268644 -0.11670133
000030 0e b0 4a 3d ae ea 6c bd 78 7c 9b 3d 3d 1c 9a 3d
       0.049484305 -0.057840995 0.075921 0.07524917
000040 10 ec 05 3e bd c0 a3 bd 38 c1 d9 3d 86 92 98 bd
       0.13078332 -0.07995746 0.10632557 -0.07449822
000050 8d c9 7c bd 82 76 25 be c0 bd 64 bd 54 af 6f bd
       -0.06171565 -0.16158488 -0.055845022 -0.058516815
000060 f7 b9 bc 3d dc fe 02 be 39 7f 08 be 01 74 7a 3d
       0.092151575 -0.12792534 -0.13329782 0.061145786
000070 b0 8d c9 bd 99 c7 d9 bd b9 58 bc bd 08 f2 0a ba
       -0.09841478 -0.10633773 -0.0919661 -0.00053003477
000080 1b 25 6a 3d e6 40 aa 3d 18 8d f7 3d a3 90 b7 bd
       0.057164293 0.0831316 0.12087458 -0.08963134
000090 b7 f6 b7 bd 6e 25 03 3d 64 5d 12 3e 2d 1e f0 3d
       -0.08982604 0.032018118 0.14293438 0.117245056
0000a0 4a f4 d1 3d 59 e0 b2 3d 47 cf e6 3d 15 89 ba 3d
       0.102516726 0.08734197 0.11270004 0.091081776
0000b0 63 c4 db 3d 3c e1 30 3d 99 5a 17 be 4f 69 ec bd
       0.10730817 0.04318355 -0.14780654 -0.115435235
0000c0 f0 a7 b1 bd 23 ff b7 bd 39 0a dd bd f4 7b 06 3c
       -0.0867461 -0.0898421 -0.107929654 0.008208264
0000d0 cb eb 74 3d ae ca 8c 3d d1 f6 0d be 30 c6 5c 3d
       0.059795182 0.068745956 -0.13863684 0.053899944
0000e0 a6 9b da bd e6 d1 b8 bd 73 96 3e 3d 19 26 10 3e
       -0.10674219 -0.0902441 0.0465302 0.14077033
0000f0 44 e3 15 be e0 7f bf bd d5 a8 0a be 20 53 13 3e
       -0.14637476 -0.09350562 -0.13540967 0.14387178
