saved_models/tutorial8/MNIST/lightning_logs/version_1/checkpoints/epoch=59-step=28080.ckpt (torch, 313778 bytes, 11 tensors)

cnn.cnn_layers.0.weight f4 [16, 1, 5, 5]
0	0xba928121	-0.00111774
1	0x3d8040ba	0.062623456
2	0x3d844ac5	0.06459574
3	0x3dd461e5	0.103702344
4	0x3c363c00	0.011122704
5	0x3e1d580d	0.1536562
6	0x3dd665c5	0.1046863
7	0x3e4e3412	0.20137051
8	0x3e33873c	0.17532057
9	0x3d1692d4	0.03676112
10	0x3e522c35	0.20524676
11	0x3e3674bf	0.17817973
12	0x3e75243e	0.23939607
13	0x3e45a862	0.19302514
14	0x3dcdf26c	0.10056004
15	0xbc31b3df	-0.010846107
16	0x3d25884e	0.040413193
17	0xbda5dff4	-0.08099356
18	0xbdf5b62e	-0.11997639
19	0xbc91b0ad	-0.01778444
20	0xbe170d01	-0.14751054
21	0xbe446b92	-0.1918166
22	0xbe17091a	-0.14749566
23	0xbd83b213	-0.06430449
24	0xbe1ee9e1	-0.15518905
25	0xbd9d0f58	-0.07668942
26	0xbdfc569d	-0.12321208
27	0xbe6480f0	-0.22314811
28	0xbe55cc4b	-0.20878713
29	0xbe70030a	-0.2343866
30	0xbc92ecee	-0.017935243
31	0xbde9fc6e	-0.114251
32	0xbccf7ac3	-0.025327092
33	0xbe1e6802	-0.15469363
34	0xbe0ec483	-0.13942151
35	0x3dd348ad	0.10316596
36	0x3e4cafc1	0.1998892
37	0x3ea12757	0.31475326
38	0x3e4e6cd3	0.201587
39	0x3d823628	0.06357986
40	0x3de55221	0.111973055
41	0x3e484021	0.19555713
42	0x3e820988	0.25397897
43	0x3e85bd52	0.26121002
44	0x3e3f4118	0.18677175
45	0x3d305235	0.04304715
46	0x3e0c36a5	0.1369272
47	0x3e238cfc	0.1597175
48	0x3e22c968	0.15897143
49	0x3cbbbfbe	0.022918578
50	0xbe3848c7	-0.17996512
51	0xbd9cfaee	-0.076650485
52	0xbdee7b44	-0.11644605
53	0x3df2a746	0.11848311
54	0xbc133e59	-0.008987033
55	0x3d1c9b79	0.038234208
56	0x3d5833e8	0.052783877
57	0x3d27a6d4	0.040930584
58	0x3e11ff4e	0.14257547
59	0xbe2fbef3	-0.17162685
60	0x3d96cc49	0.07363183
61	0x3bc6ec42	0.0060706446
62	0x3e31f655	0.17379124
63	0xbd8f4456	-0.06995456
64	0xbcd67f6a	-0.026183803
65	0x3c8df266	0.017327499
66	0x3e62a694	0.22133857
67	0xbc391b34	-0.01129799
68	0xbe5ef006	-0.21771249
69	0xbe55e956	-0.20889792
70	0x3e2309e1	0.15921737
71	0x3df1815f	0.11792254
72	0x3e35d520	0.17757082
73	0xbe53063c	-0.20607847
74	0xbe91af60	-0.28454113
75	0xbe42836f	-0.1899545
76	0xbe69e9a1	-0.22843029
77	0x3d1a4775	0.037665803
78	0x3db4a376	0.0882024
79	0x3e31a37b	0.17347519
80	0xbe6fa219	-0.23401679
81	0xbe56cc3b	-0.20976345
82	0x3e13b958	0.14426172
83	0x3df60512	0.12012686
84	0x3e389685	0.18026169
85	0xbe3922b1	-0.1807964
86	0x3df80bb2	0.12111606
87	0x3e0e544d	0.13899346
88	0x3e2af82b	0.16696231
89	0x3cb73ab8	0.022366866
90	0x3d1e1794	0.038596705
91	0x3e16d78f	0.14730667
92	0x3ea54bd5	0.32284418
93	0x3e0d8b4b	0.13822667
94	0xbe2f201a	-0.1710209
95	0x3c9a0163	0.01879949
96	0x3e5fc485	0.2185231
97	0x3bc5fea1	0.006042317
98	0xbda65508	-0.08121687
99	0xbe5896cb	-0.21151273
100	0xbdb5f694	-0.08884922
101	0x3cb8612c	0.022507273
102	0xbd6b3afe	-0.057429306
103	0xbe135a07	-0.14389811
104	0xbafb5272	-0.0019174351
105	0xbda9ad51	-0.082850106
106	0xbe2b8770	-0.16750884
107	0xbe13292c	-0.14371175
108	0xbe65f2f9	-0.22455968
109	0xbe3335f3	-0.17501049
110	0x3e1c006c	0.15234536
111	0xbab16439	-0.0013533897
112	0xbcd8525a	-0.026406456
113	0xbe7dd6d6	-0.24788985
114	0xbe30bc3c	-0.17259306
115	0xbd579a53	-0.05263741
116	0xbc8f7f57	-0.017516775
117	0xbe42632c	-0.18983144
118	0xbe19b980	-0.15012169
119	0xbe0915d4	-0.13387233
120	0x3c902afe	0.017598625
121	0xbdb8b535	-0.090189375
122	0xbd123eab	-0.035704296
123	0xbe0f34af	-0.13984941
124	0xbdeae751	-0.11469901
125	0xbdf437da	-0.11924715
126	0xbd112497	-0.035435285
127	0xbdb69149	-0.0891443
128	0x3e201b99	0.15635528
129	0xbd8e9f36	-0.06963961
130	0x3e019a47	0.12656508
131	0x3e1a3aa8	0.15061438
132	0xbe01e829	-0.12686218
133	0x3e26c281	0.16285135
134	0xbdb45bed	-0.08806596
135	0xbe579848	-0.21054184
136	0xbc83ba35	-0.016080001
137	0xbe4f1a8a	-0.20224968
138	0x3e318530	0.17335963
139	0x3d34a2c1	0.044100527
140	0x3e24717a	0.16058913
141	0xbe3adeb6	-0.1824902
142	0x3e5bcb63	0.21464305
143	0xbe966ce5	-0.29379955
144	0x3da5b4f4	0.08091155
145	0xbd769821	-0.060203675
146	0xbcab5768	-0.020915702
147	0x3d197cff	0.03747272
148	0x3e3d2868	0.18472445
149	0xbdd97d7e	-0.10619639
150	0xbcfdce7c	-0.030982248
151	0xbd24ca3d	-0.040231932
152	0x3cec915e	0.02887791
153	0xbd1a6ef2	-0.037703462
154	0x3d9d0c85	0.076684035
155	0xbc8e572e	-0.017375555
156	0x3e0ed34f	0.13947795
157	0x3dfbaed2	0.12289204
158	0x3dd16356	0.10224025
159	0x3c8eb52c	0.017420374
160	0x3e0844b5	0.1330746
161	0x3df2d3b3	0.11856785
162	0x3e032d99	0.12810363
163	0xbbceb731	-0.006308459
164	0x3d6c593a	0.05770228
165	0x3dcfba99	0.101430126
166	0x3dd460a7	0.103699975
167	0x3e1b57c6	0.15170202
168	0x3ce24361	0.02762002
169	0xbdde1355	-0.10843531
170	0x3c18e4dd	0.009331909
171	0x3d7123b1	0.05887193
172	0x3dab02f4	0.08350173
173	0xbda7a55f	-0.08185839
174	0xbe11a1cb	-0.14221875
175	0xbcb261d2	-0.02177516
176	0x3d3001b5	0.042970378
177	0x3e019673	0.12655048
178	0x3cb40e3c	0.021979444
179	0xbdb1cf04	-0.08682063
180	0x3d5853aa	0.052814163
181	0x3e3b7ea4	0.18310028
182	0x3e410d6b	0.18852775
183	0x3d9af9a4	0.075671464
184	0xbc07ed70	-0.008296356
185	0xbb688a3a	-0.003548278
186	0x3e2fdfc1	0.17175199
187	0x3e72b35d	0.23701234
188	0x3e5350c2	0.20636275
189	0x3dcd2d91	0.10018457
190	0xbdfb8bab	-0.12282499
191	0x3cb0c98e	0.021580484
192	0x3e562454	0.20912296
193	0x3e974c2a	0.29550296
194	0x3df7998d	0.12089834
195	0xbe22853f	-0.15871142
196	0xbdb5eb03	-0.088827156
197	0x3d861e57	0.065487556
198	0x3e01a970	0.12662292
199	0x3dbb5f16	0.091489956
200	0xbdf9004c	-0.1215826
201	0xbdccce16	-0.10000245
202	0x3e04c0fb	0.12964241
203	0x3d2160ea	0.039399065
204	0xbc56e258	-0.013115488
205	0xbe0cf9f3	-0.13767223
206	0xbe3f4c77	-0.18681513
207	0xbe3eaa99	-0.18619765
208	0xbdf97ef5	-0.12182418
209	0x3a426909	0.0007416164
210	0x3d962bcd	0.07332573
211	0x3c3c0b10	0.011477247
212	0xbe6b8141	-0.22998525
213	0xbe4ad058	-0.1980604
214	0xbde59501	-0.11210061
215	0x3e034072	0.12817553
216	0xbcd92b79	-0.026509987
217	0xbd545faf	-0.051849063
218	0x3c764bfd	0.015032765
219	0xbde5b689	-0.112164564
220	0xbdd8a541	-0.10578395
221	0x3de6fc31	0.112785704
222	0xbdf52f8f	-0.11971962
223	0xbd927263	-0.07150724
224	0xbe37814e	-0.1792042
225	0x3de61f54	0.11236444
226	0x3e0abac1	0.13547803
227	0x3dc3834a	0.09546526
228	0xbd50ad65	-0.050946612
229	0xbe161dd5	-0.14659818
230	0xbd4f4225	-0.05060019
231	0x3e1f3e00	0.15550995
232	0x3d9fb74f	0.07798635
233	0x3d4b8463	0.0496868
234	0xbd384418	-0.044986814
235	0x3d2f5098	0.04280147
236	0xbcf09485	-0.029367695
237	0xbe5a8846	-0.21341047
238	0xbe81e930	-0.2537322
239	0xbe812367	-0.25222322
240	0xbadc0f3e	-0.001678921
241	0xbe26ddc0	-0.16295528
242	0xbe1055fa	-0.14095297
243	0xbe370234	-0.17871934
244	0xbdec3e32	-0.115353
245	0xbe2bdde5	-0.16783865
246	0xbe3de085	-0.18542679
247	0xbd2562cc	-0.040377423
248	0xbdbe2dbb	-0.09286066
249	0x3d5a3da3	0.053281438
250	0xbcec7e83	-0.02886892
251	0xbe07b414	-0.13252288
252	0x3d4ef2ab	0.050524395
253	0xbddcff09	-0.107908316
254	0x3d0b573f	0.03401875
255	0xbe7e8fa3	-0.2485948

cnn.cnn_layers.0.bias f4 [16]
0	0xbe17553f	-0.14778613
1	0x3de8e0f1	0.11371029
2	0x3de99cd3	0.11406865
3	0x3dd89c23	0.10576656
4	0xbdd7f527	-0.10544806
5	0xbe0ea340	-0.13929462
6	0xbea32347	-0.31862852
7	0xbe1b15c2	-0.15145019
8	0xbe18d4ca	-0.14924923
9	0x3cc29869	0.023754315
10	0xbcdaa31d	-0.026689107
11	0xbe079c79	-0.13243283
12	0x3e908b46	0.28231257
13	0x3c8f6d53	0.017508185
14	0x3dcfa95c	0.101397246
15	0x3d2b9195	0.041886885

cnn.cnn_layers.2.weight f4 [32, 16, 3, 3]
0	0xbc3377e0	-0.010953873
1	0x3d0fa1fb	0.035066586
2	0xbd335ae5	-0.043787856
3	0xbd731367	-0.059344675
4	0x3d8b696a	0.068072155
5	0x3d04e00a	0.032440223
6	0xbcb8b006	-0.022544872
7	0x3db8515e	0.089998946
8	0x3de644d6	0.11243598
9	0xbc31aa53	-0.010843831
10	0xbc3b20cf	-0.011421396
11	0xbd203ce2	-0.039120562
12	0xbc942ae9	-0.018086867
13	0x3d1cf905	0.03832342
14	0x3df0b041	0.11752368
15	0x3c1d548d	0.009602678
16	0x3ce30507	0.027712358
17	0x3d24d49b	0.04024182
18	0xbcbafe7a	-0.022826422
19	0x3badbda4	0.005302148
20	0x3ca61393	0.020273006
21	0xbd1e8609	-0.038702045
22	0xbb262f18	-0.002535766
23	0x3d23ed7e	0.040021412
24	0xbba3a2d4	-0.004993776
25	0x3dbb314d	0.09140263
26	0x3d708254	0.05871804
27	0x3d86dd8c	0.065852255
28	0x3d5eae1d	0.054365266
29	0x3d167fa6	0.03674283
30	0xbd26826f	-0.040651735
31	0x3df33cf3	0.118768595
32	0x3e233bb6	0.15940747
33	0x3c276f51	0.010219411
34	0x3dc0066c	0.09376225
35	0x3d8dc40a	0.06922157
36	0xbcdbd2b8	-0.026833877
37	0x3d1d703e	0.03843712
38	0x3d28db4c	0.041224763
39	0x3d37f486	0.04491093
40	0xbc8287fe	-0.015933987
41	0x3da07435	0.07834665
42	0x3b65735e	0.003501139
43	0xbd6e6bf2	-0.058208413
44	0x398ae96e	0.0002649533
45	0x3bd54aaa	0.006509145
46	0x3d8a3011	0.06747449
47	0xbcce0d8a	-0.02515294
48	0x3d4eb1fe	0.050462715
49	0x3b36e8a4	0.002790966
50	0x3d31069d	0.043219198
51	0x3d17761c	0.036977872
52	0x3d4b7d58	0.049680084
53	0xbb491320	-0.0030681565
54	0x3d3ce4e1	0.046116713
55	0x3d24d98b	0.040246528
56	0x3d8aebee	0.06783281
57	0x3d6033ce	0.054736905
58	0x3c9c6a2d	0.019093597
59	0x3dece086	0.11566262
60	0xbc1aa355	-0.009438355
61	0xbc20bbc2	-0.00981039
62	0x3d4572f1	0.04820532
63	0xbd1ab6cf	-0.037771996
64	0xbd1500cc	-0.036377713
65	0xbd79789a	-0.06090603
66	0xbde86754	-0.11347833
67	0xbdb056ca	-0.08610304
68	0xbdb9cbb0	-0.090720534
69	0xbd8a7f86	-0.067626044
70	0xbd098a2c	-0.033579037
71	0xbca4c1c5	-0.020111928
72	0x3d8bcc9a	0.06826134
73	0x3dd7f541	0.10544825
74	0x3d2a0f9d	0.041518796
75	0x3d24bcfb	0.04021929
76	0x3c868bf3	0.016424155
77	0x3b28cc59	0.0025756566
78	0xbd6c61b2	-0.057710357
79	0xbd059db8	-0.032621115
80	0x3c916085	0.01774622
81	0x3db7fec7	0.08984142
82	0xbba59da8	-0.0050541945
83	0x3cd80c38	0.026373014
84	0x3d2dde2a	0.0424482
85	0x3c94d5c9	0.018168347
86	0x3d462ebe	0.04838442
87	0x3d7dcaa2	0.061960824
88	0x3daaf95f	0.08348345
89	0x3dbf072a	0.09327538
90	0xbd368116	-0.0445567
91	0xbc4e0b3a	-0.012575919
92	0x3da4d808	0.08049017
93	0x3d990bc9	0.07472951
94	0x3d8c0e8c	0.06838712
95	0x3cb9d13b	0.022682777
96	0x3d87b38f	0.06626045
97	0x3c3bce4f	0.011462762
98	0x3b62f0c7	0.0034628378
99	0xbd18463e	-0.037176363
100	0x3db27179	0.087130494
101	0xbd2964a5	-0.041355748
102	0x3dd28b3a	0.102804616
103	0x3c1fe47a	0.009759063
104	0x3b24193a	0.002503945
105	0x3d64eb47	0.05588844
106	0xbc9f0e92	-0.019416127
107	0x3d8eab66	0.069662854
108	0xbb549110	-0.0032435097
109	0xbd9be76f	-0.07612502
110	0x3d159f81	0.036529068
111	0xbd107157	-0.03526434
112	0xbacf623f	-0.0015822126
113	0x3d1d6cd9	0.038433883
114	0x3aefd815	0.001829865
115	0xbd5990db	-0.05311666
116	0xbdabdc2e	-0.08391605
117	0x3d975a84	0.07390311
118	0x3da14b5a	0.078757
119	0x3c5d249b	0.013497497
120	0xbd6067d0	-0.054786503
121	0x3c84cf93	0.01621226
122	0xbd4e1c51	-0.050319973
123	0x3d6aadd3	0.057294678
124	0xbceda9fa	-0.029011715
125	0xbbd0bd70	-0.006370239
126	0x372c465a	1.0268379e-05
127	0x3cd9a51e	0.026567992
128	0x3d428030	0.04748553
129	0xbc121e1a	-0.00891831
130	0x3cf899ef	0.030346839
131	0x3c9094f2	0.017649148
132	0x3ca992a2	0.020699803
133	0x3d32ac36	0.043621264
134	0xbcbb4590	-0.022860318
135	0x3d036747	0.032080915
136	0xbdb86c37	-0.09005015
137	0x3d38ba35	0.045099456
138	0xbd65ac79	-0.056072686
139	0xbd78cf43	-0.060744535
140	0x3d34f68e	0.044180445
141	0x3cb72de2	0.022360746
142	0xbc092630	-0.008370921
143	0x3d553414	0.05205162
144	0x3d3b4c3f	0.04572701
145	0x3d1c6379	0.038180802
146	0xbcad2f9f	-0.021140872
147	0xbdb29ff9	-0.087219186
148	0xbd7e3fad	-0.062072445
149	0xbd20b83a	-0.039238192
150	0xbdad56be	-0.084638104
151	0xbdac24e0	-0.08405471
152	0xbdbc333c	-0.0918946
153	0xbd40aeac	-0.04704158
154	0xbce7d192	-0.028298173
155	0xbd543ef8	-0.051817864
156	0xbdb051ff	-0.086093895
157	0xbcc3aa8e	-0.023885038
158	0x3da6aa81	0.0813799
159	0xbceb4c49	-0.028722899
160	0xbcd3138d	-0.025766158
161	0x3d3f224a	0.04666356
162	0xbd0eb5d4	-0.034841374
163	0xbd0b0602	-0.033941276
164	0x3d36fe00	0.044675827
165	0xbda9741a	-0.08274098
166	0xbc226361	-0.009911389
167	0x3dc09679	0.094037004
168	0x3c3449f9	0.011003965
169	0x3d35fd2a	0.04443089
170	0xbd100765	-0.035163302
171	0x3bf3b6b7	0.007437553
172	0xbb495759	-0.003072223
173	0x3d746bfc	0.059673294
174	0x3d19d9c6	0.0375612
175	0x3d52b3ca	0.05144099
176	0xbd649706	-0.05580809
177	0x3c7c3076	0.015392413
178	0xbcbe11fe	-0.023201939
179	0xbd4e71d1	-0.050401513
180	0x3c826c24	0.015920706
181	0xbd8fc040	-0.07019091
182	0x3d5ee4ce	0.054417424
183	0x3c4bbe21	0.012435467
184	0xbd3d5437	-0.04622289
185	0x3ce518f6	0.027966004
186	0xbd9091d4	-0.070590645
187	0xbd229293	-0.039690565
188	0xbc9d01ee	-0.01916596
189	0xbdcd001c	-0.100097865
190	0xbc831672	-0.016001914
191	0xbbd18da1	-0.0063950573
192	0x3d154c24	0.036449566
193	0x3dcdaa1d	0.10042212
194	0x3c769f97	0.015052698
195	0xbd03f82f	-0.03221911
196	0xbce1d67e	-0.027568098
197	0x3d3d2aaa	0.046183266
198	0x3c38df64	0.011283729
199	0xbd0c14b0	-0.034199417
200	0x3a69a046	0.0008912127
201	0xbdbba352	-0.0916201
202	0xbd97e666	-0.07416992
203	0x3d393cce	0.045224003
204	0xbd43e724	-0.047827855
205	0xbd79b150	-0.060960114
206	0xbdc63c8f	-0.096795194
207	0xbd38893d	-0.045052756
208	0xbd331147	-0.04371765
209	0xbdb47ae1	-0.088125
210	0xbd280c8e	-0.041027598
211	0x3b6d88bc	0.003624483
212	0xbda0caf5	-0.07851211
213	0x3a32647c	0.00068051345
214	0xbda89ee6	-0.082334325
215	0xbd87fd24	-0.066400796
216	0x3d581745	0.052756567
217	0x3d845c6a	0.06462939
218	0xbd002533	-0.031285476
219	0xbc8ec683	-0.017428642
220	0xbda05126	-0.07827978
221	0xbd210321	-0.039309625
222	0xbd763080	-0.060104847
223	0xbc98f16b	-0.018669805
224	0x3ce5a0dd	0.028030807
225	0xbd949226	-0.07254438
226	0x3d814302	0.06311609
227	0x3d2d461a	0.042303182
228	0xbd77a5f4	-0.060461
229	0xbd6fda15	-0.05855759
230	0x3bced534	0.006312037
231	0xbc936747	-0.017993582
232	0xbd5788f0	-0.05262083
233	0xbd8a3eb0	-0.06750238
234	0x3d685345	0.056720037
235	0xbbb22f8c	-0.005437797
236	0x3dc4ca1f	0.09608864
237	0xbccdfb4c	-0.025144242
238	0x3ccf85f7	0.025332434
239	0x3d5b8f02	0.05360318
240	0xbccec25b	-0.02523916
241	0xbcea4a82	-0.028599981
242	0x3c980d48	0.01856102
243	0x3da58120	0.08081269
244	0xbd1e4dce	-0.03864842
245	0x3cb63aba	0.0222448
246	0xbd67943f	-0.056537863
247	0x3d42c769	0.047553454
248	0x3d326351	0.043551747
249	0x3c29d90f	0.010366692
250	0x3d2d2459	0.042270992
251	0xbbae6dd7	-0.0053231525
252	0x3dbb32c1	0.0914054
253	0x3b64940f	0.003487829
254	0x3ca1efa6	0.019767594
255	0x3cd7caea	0.026341874

cnn.cnn_layers.2.bias f4 [32]
0	0x3c91ad37	0.01778279
1	0x3e2d6979	0.16934766
2	0x3e07eeca	0.13274685
3	0xbd01bfd3	-0.03167708
4	0xbdbd1906	-0.092332885
5	0xbd6aa041	-0.057281736
6	0xbe085a22	-0.13315633
7	0x3ddcf77a	0.1078939
8	0x3df6e95e	0.1205623
9	0xbdf7ddb9	-0.12102837
10	0xbe0cf769	-0.13766254
11	0x3d072d99	0.03300247
12	0xbddc234d	-0.107489206
13	0x3e2b22dd	0.16712518
14	0xbe0d0f22	-0.13775304
15	0x3d78ba6d	0.060724664
16	0xbdc1cf43	-0.0946336
17	0x3e3c50a3	0.18390135
18	0xbdaa2c48	-0.08309227
19	0x3e4ad013	0.19805937
20	0x3c6413dc	0.0139207505
21	0x3e135d44	0.14391047
22	0x3e3084b3	0.1723812
23	0x3c72c354	0.014817078
24	0x3abe9cc5	0.001454257
25	0xbdb12a21	-0.086506136
26	0x3d93bc59	0.07213659
27	0x3e078e86	0.13237962
28	0x3e32c33e	0.17457291
29	0xbdcf7870	-0.101303935
30	0xbe07a220	-0.1324544
31	0x3cfe9b13	0.031079805

cnn.cnn_layers.4.weight f4 [64, 32, 3, 3]
0	0xbcc0dedd	-0.02354377
1	0x3b6aea8f	0.0035845374
2	0x3a2c13b6	0.00065642165
3	0xbd0695cd	-0.032857705
4	0xbd046501	-0.032322887
5	0x3bed961f	0.007250562
6	0xbd46fbce	-0.048579983
7	0x3d369494	0.04457529
8	0xbc47a419	-0.01218512
9	0x3d41bf9e	0.04730188
10	0xbc15b928	-0.009138383
11	0xbce3438c	-0.02774217
12	0x3d357ab3	0.04430647
13	0xbd801860	-0.06254649
14	0xbd6e36ea	-0.05815784
15	0xbd3ceb10	-0.04612261
16	0xbcef997b	-0.02924799
17	0x3c57f693	0.0131813465
18	0x3ce310fb	0.027718058
19	0x3ce4f3ce	0.027948286
20	0x3d103248	0.035204202
21	0x3d819cb1	0.06328715
22	0x39d5e050	0.00040793652
23	0xbd4482d3	-0.047976326
24	0xbc569c13	-0.013098734
25	0xbdb6603a	-0.089050725
26	0xbd9b16b6	-0.07572691
27	0x3c61db22	0.0137851555
28	0x3c9bf795	0.019038955
29	0xbcb22361	-0.021745386
30	0xbd13997c	-0.036035046
31	0x3b9ceefc	0.0047892313
32	0xbb992274	-0.0046732966
33	0xbce382bb	-0.027772298
34	0x3d12f93e	0.035882227
35	0xbd1b57c8	-0.03792551
36	0x3d739248	0.059465677
37	0x3cb74d78	0.022375807
38	0xbc80f5d4	-0.01574222
39	0x3d6f55ec	0.05843155
40	0xbda0fee6	-0.07861118
41	0xbd0b5ec6	-0.03402593
42	0x3d4434c6	0.04790189
43	0xbc222db1	-0.009898589
44	0xbcb85ac7	-0.022504224
45	0xb8672249	-5.5106622e-05
46	0x3afa3e3b	0.0019092032
47	0x3d2d839c	0.04236184
48	0x3d0cc213	0.03436477
49	0xbbad4efb	-0.005288956
50	0x3c43a6c2	0.011941614
51	0x3c8dc728	0.01730688
52	0x3c742331	0.014900968
53	0x3c907987	0.017636074
54	0x3cff95ab	0.031199297
55	0x3d2e5ae8	0.042567164
56	0x3d35d6f2	0.04439444
57	0xbc92b6e5	-0.017909477
58	0x3d1fe986	0.039041065
59	0xbc516fe7	-0.012783027
60	0x3aed36c1	0.0018097983
61	0x3d86459e	0.06556247
62	0xbd0bf411	-0.034168307
63	0xbb93a0ac	-0.0045052376
64	0xbcb29456	-0.021799248
65	0xbd5abb6d	-0.0534014
66	0xbd9681bc	-0.073489636
67	0xbd1226ce	-0.03568154
68	0x3d039c9c	0.032131776
69	0xbd42392d	-0.04741781
70	0xbbb82e01	-0.0056207185
71	0x3d03c3ed	0.03216927
72	0xbd6d0742	-0.05786825
73	0x3d182628	0.037145764
74	0xbb5c6e9e	-0.003363527
75	0xbd9b9bbe	-0.07598065
76	0xbd8b0fbe	-0.06790112
77	0xbd9c0e4a	-0.07619913
78	0x3c61d54a	0.013783762
79	0x3ce0f4b1	0.027460428
80	0x3cc86a98	0.02446489
81	0x3d5aeb69	0.05344716
82	0x3d857b0c	0.0651761
83	0x3d9365bf	0.07197141
84	0x3cc02a69	0.023457723
85	0xbd05683f	-0.03257012
86	0x3d2eafbe	0.04264807
87	0x3c9b9b22	0.018994872
88	0x3b9e38ce	0.004828549
89	0xbb921d86	-0.004459086
90	0x3d051e0d	0.03249936
91	0x3cd8ab12	0.02644876
92	0x3d5014e4	0.050801173
93	0x3ab32b8d	0.0013669595
94	0x3dbaa4e3	0.09113481
95	0xbb591916	-0.0033126525
96	0x3d1d9e47	0.038481023
97	0x3cdd84ad	0.027040804
98	0x3c89f636	0.016841035
99	0x3d5d17d4	0.053977802
100	0x3c8dbc3d	0.017301673
101	0x3c80e541	0.015734317
102	0x3d249902	0.040184982
103	0xbd40d4a6	-0.047077797
104	0xbcb47db7	-0.022032602
105	0xbd3b527e	-0.045732968
106	0x3bb95519	0.0056558964
107	0xbc971bc5	-0.018445859
108	0x3c917d0a	0.017759819
109	0x3d95fd6a	0.073237255
110	0xbc38ebfb	-0.011286731
111	0xbd0a693b	-0.03379176
112	0x3d82b7c9	0.063827105
113	0xba866bed	-0.0010255553
114	0x3da9f249	0.08298165
115	0x3df4d5a0	0.11954808
116	0x3c73ab53	0.01487239
117	0xbd077888	-0.033073932
118	0x3d31f9b7	0.043451037
119	0x3cb1391d	0.021633679
120	0x3cb72272	0.022355292
121	0xbd21c71c	-0.039496526
122	0xbc637656	-0.013883194
123	0xbc8adcf7	-0.016951067
124	0xbc138e6a	-0.009006122
125	0xbbbea13d	-0.005817561
126	0x3d8279ba	0.06370874
127	0xbd0c9fb5	-0.034331996
128	0xbcd63d3e	-0.02615225
129	0xbcfb3029	-0.030662613
130	0xbcf437d1	-0.029811772
131	0x3cab94e8	0.020945027
132	0xbc0568e0	-0.00814268
133	0x3d077a46	0.033075593
134	0x3d04a408	0.032382995
135	0xbbb6e719	-0.005581748
136	0xbd4f89ab	-0.0506684
137	0x3c939c1f	0.01801878
138	0xbc4e6f6a	-0.012599805
139	0x3cadda02	0.021222118
140	0x3d31cb8e	0.043407016
141	0x3c30220e	0.010750307
142	0xbce3eed1	-0.027823837
143	0x3d6e1495	0.058125097
144	0xbd051215	-0.032487947
145	0x3d07870e	0.033087783
146	0x3d8f3d03	0.06994059
147	0x3c84c7f5	0.016208628
148	0x3b136908	0.0022493023
149	0xbd5f4c86	-0.054516338
150	0xbc9229ed	-0.017842257
151	0xbc1b305f	-0.009471982
152	0xbcea1e27	-0.02857883
153	0xbd0e8798	-0.03479728
154	0x3ced1778	0.028941855
155	0xbd697c06	-0.057003044
156	0x3d48aaa4	0.04899086
157	0xbd53e8f0	-0.05173582
158	0x3d1aca5b	0.037790637
159	0x3d85a9ac	0.06526503
160	0x3d12589e	0.035729043
161	0xbca7eae9	-0.020497756
162	0xbd8c04d3	-0.06836858
163	0xbce0b2df	-0.027429042
164	0x3d6ea71c	0.058264837
165	0xbc13fa18	-0.009031795
166	0x3cca04a5	0.024660418
167	0xbd131a20	-0.035913587
168	0xbcca111f	-0.024666367
169	0x3d3678d4	0.044548824
170	0x3cc3c55b	0.023897817
171	0xbb021a51	-0.0019852112
172	0x3cd70022	0.02624518
173	0xbda422b6	-0.08014433
174	0xbc244ab5	-0.010027577
175	0x3ca59ab4	0.02021537
176	0xbcc4469e	-0.023959454
177	0xbd254d2a	-0.040356793
178	0xbd0a66d7	-0.033789482
179	0x3d149f29	0.0362846
180	0x3d09bc9f	0.03362715
181	0x3ce01476	0.027353507
182	0xbcae68b3	-0.021290159
183	0xbd25879d	-0.040412534
184	0xbc766d00	-0.015040636
185	0xbd6e8d82	-0.05824042
186	0xbcdfb3fe	-0.027307507
187	0xbaed67dc	-0.0018112618
188	0xbd889460	-0.06668925
189	0xbd1fea1f	-0.039041635
190	0x3d5de0b2	0.054169364
191	0x3d02a7e3	0.03189839
192	0xbab088db	-0.001346852
193	0xbd551e0d	-0.05203061
194	0x3c3a7cd0	0.011382297
195	0x3cf4e0af	0.029892294
196	0xbc178a8c	-0.009249341
197	0x3cdfe0bc	0.027328841
198	0x3db30f93	0.08743205
199	0xbac7ffaa	-0.0015258689
200	0xbd1fc023	-0.039001595
201	0x3c9e902c	0.019355856
202	0xbd38e566	-0.045140646
203	0xbdb2a1f7	-0.087222986
204	0x3cc3b62a	0.023890574
205	0xbd569a2a	-0.052393116
206	0xbd782001	-0.060577396
207	0xbd843d0e	-0.06456958
208	0xbcd18d48	-0.025580063
209	0x3cef2c72	0.029195998
210	0x3c2d62e7	0.010582662
211	0xbdc10eb9	-0.09426636
212	0x3c161c16	0.00916197
213	0xbcf897db	-0.030345848
214	0x3c0aa780	0.008462787
215	0x3d238279	0.03991935
216	0xbd162b42	-0.036662348
217	0xbcaad7a3	-0.020854777
218	0x3d6b54d1	0.057453934
219	0xbdad0ae3	-0.08449342
220	0xbda44a74	-0.08022013
221	0xbd82c37d	-0.06384943
222	0x3d2ace70	0.04170078
223	0x3c9715a8	0.018442944
224	0xbc63edcf	-0.013911678
225	0x3d240d6c	0.040051863
226	0x3da67394	0.081275135
227	0x3d1ef0af	0.038803753
228	0xbd795664	-0.060873404
229	0xbd73e744	-0.059546724
230	0x3d86e73c	0.06587073
231	0x3d430044	0.047607675
232	0xbb987fb6	-0.004653896
233	0x3d4217f7	0.047386136
234	0xbbe49ae2	-0.0069764713
235	0x3d2681c8	0.040651113
236	0x3c4f7cb7	0.012664012
237	0x3ad3757e	0.0016133038
238	0xbd9489cc	-0.07252845
239	0xbd28a501	-0.041172985
240	0x3bbcb1be	0.005758493
241	0x3be4f8c5	0.0069876635
242	0xbbc0c435	-0.0058827647
243	0x3be99e4b	0.0071294657
244	0x3bf11048	0.007356677
245	0x3b5ff871	0.0034175182
246	0xbc9453b2	-0.018106315
247	0x3c05c9e0	0.0081658065
248	0x3d4b5599	0.04964218
249	0xbc7c1f9d	-0.015388397
250	0xbcac4c8c	-0.021032594
251	0x3cbd1439	0.023080932
252	0x3c5029c4	0.01270527
253	0xbd161101	-0.03663731
254	0xbcf59b10	-0.029981166
255	0xbbbd527b	-0.0057776547

cnn.cnn_layers.4.bias f4 [64]
0	0xbdb5e7c5	-0.08882097
1	0xbbb3dc47	-0.0054889056
2	0x3d58f13c	0.052964434
3	0x3dfcf8c5	0.123521365
4	0x3ddacc46	0.10683493
5	0x3dc19af1	0.09453381
6	0xbb3e0a87	-0.0028997974
7	0x3da86411	0.08222211
8	0x3dc45876	0.09587185
9	0x3c52c1e2	0.012863608
10	0xbdc74704	-0.09730342
11	0xbd9d01e7	-0.076663785
12	0x3dc7fb1a	0.09764691
13	0xbd9b89fb	-0.07594677
14	0x3e0f07b7	0.13967787
15	0x3e24e129	0.16101517
16	0xbd3638be	-0.044487707
17	0xbddf164b	-0.10892924
18	0x3d7d49be	0.061837904
19	0xbdc485c3	-0.095958255
20	0xbdd17cb9	-0.10228867
21	0x3df2eed4	0.11861959
22	0xbddbe460	-0.107369184
23	0xbe1e0c45	-0.15434368
24	0xbd944780	-0.072402
25	0x3d8f4530	0.06995618
26	0x3de22b6c	0.11043438
27	0xbd28fe87	-0.04125836
28	0x3d98d119	0.07461757
29	0x3e0ec766	0.13943252
30	0xbda2e1f1	-0.07953251
31	0x3d8531de	0.06503652
32	0x3da013a9	0.0781625
33	0xbd75edd7	-0.060041275
34	0xbd3b1530	-0.045674503
35	0xbcc83a7f	-0.024441956
36	0x3e036151	0.12830092
37	0xbd74a8fe	-0.059731476
38	0xbd119005	-0.03553774
39	0x3e18105e	0.14849994
40	0xbd4777d9	-0.04869828
41	0x3db6babe	0.08922337
42	0xbcff32fa	-0.031152237
43	0xbd8af661	-0.06785274
44	0xbce9eb27	-0.028554512
45	0x3df45d08	0.11931807
46	0x3dcd889d	0.100358225
47	0xbd11ddf2	-0.035612054
48	0x3ddd9c54	0.10820833
49	0x3dc09eb5	0.09405271
50	0xbd824943	-0.0636163
51	0xbd02fcdf	-0.031979438
52	0xbddb2cc0	-0.10701895
53	0xbd8dbb4d	-0.069204904
54	0xbdccd8f3	-0.10002317
55	0xbc419f01	-0.011817695
56	0xbdcea8cd	-0.1009079
57	0x3d88f6fe	0.06687735
58	0xbd14a0ea	-0.036286272
59	0x3e05c39a	0.13062897
60	0x3df97ed9	0.121823974
61	0x3d855d4f	0.06511938
62	0xbd55908d	-0.052139807
63	0x3e2a1c25	0.16612299

cnn.cnn_layers.6.weight f4 [64, 64, 3, 3]
0	0xbb24baef	-0.0025135835
1	0xbba0b149	-0.0049039465
2	0x3d003f9f	0.031310674
3	0x3caf1e64	0.021376796
4	0x3c855180	0.016274214
5	0xbc9f0896	-0.019413274
6	0x3d4ad386	0.04951813
7	0xbd2fb7ff	-0.04290008
8	0xbbda7b36	-0.00666752
9	0xbd640a38	-0.055673808
10	0x3c1d5451	0.009602622
11	0x3c60df20	0.013725072
12	0xbd2e2d3e	-0.042523615
13	0xbc3fa9bf	-0.0116981855
14	0x3c608539	0.013703638
15	0x3c12aaca	0.008951852
16	0x3d47a624	0.04874243
17	0xbc2ae920	-0.010431558
18	0x3d6a552a	0.057210125
19	0x3d5d4eb8	0.05403015
20	0x3d781a98	0.060572237
21	0x3cb8cbc9	0.02255811
22	0xbd142bd8	-0.036174625
23	0x3d684cff	0.056714054
24	0xbcb0bff8	-0.021575913
25	0xbc5003ce	-0.01269622
26	0xbd39331f	-0.04521477
27	0x3a581e5c	0.000824427
28	0x3d378f5d	0.044814456
29	0x3cd12091	0.025528224
30	0xbbfa97c6	-0.0076474873
31	0x3d80eae4	0.06294802
32	0x3d1dde30	0.038541973
33	0xbc2d0c47	-0.010562009
34	0x3c6a0a6a	0.0142847095
35	0xbcc7f4ed	-0.024408782
36	0xbc0d629f	-0.00862947
37	0x3ce0c70f	0.027438669
38	0xbb9b8153	-0.0047456413
39	0x3b182d37	0.002322031
40	0x3ceb097f	0.028691052
41	0x3d202b41	0.03910375
42	0xbd8838b5	-0.06651441
43	0xbc9719cc	-0.018444918
44	0x3c8bf2f8	0.01708363
45	0x3beaebda	0.007169229
46	0x3cafe31c	0.021470599
47	0x3d85ba41	0.06529666
48	0x3cec6b1d	0.02885967
49	0x3cba9b2f	0.022779075
50	0xbc9c5efa	-0.019088257
51	0xbc99d506	-0.018778335
52	0x3d1aa7be	0.037757628
53	0x3d5f69e0	0.05454433
54	0xbd230aeb	-0.039805334
55	0xbbf6efed	-0.0075359256
56	0x3d57b090	0.052658617
57	0x3c8677b0	0.016414493
58	0x3a8d6993	0.001078891
59	0xbd5331c5	-0.051561136
60	0x3c85faf1	0.01635501
61	0xbc103c07	-0.008803374
62	0xbc226af8	-0.009913199
63	0xbca82bd1	-0.020528706
64	0x3d0469ad	0.032327343
65	0x3c6fc886	0.014635211
66	0x3d839e85	0.064267196
67	0xbb52c1a8	-0.0032158885
68	0xbc957a03	-0.018246656
69	0x3ba46a28	0.0050175376
70	0x3d32e6f6	0.043677293
71	0x3bf46f21	0.0074595367
72	0x3ca36a56	0.019948166
73	0xbd1524d9	-0.036412094
74	0xbc0f8883	-0.008760574
75	0x3d91ac26	0.07112913
76	0x3d3020ce	0.043000035
77	0xbba1ad77	-0.0049340087
78	0x3c8d8de3	0.01727957
79	0x3b8fd313	0.0043891757
80	0x3d272a3b	0.04081176
81	0x3d1748db	0.036934715
82	0x3d1608a8	0.03662935
83	0x3cce7506	0.025202285
84	0x3baffb90	0.0053705648
85	0xbd20e6f4	-0.039282754
86	0xbcba4635	-0.022738555
87	0x3c8453b1	0.016153188
88	0xbd2a97ab	-0.041648548
89	0xbd27f2a2	-0.041002877
90	0xbc3dc5c1	-0.011582793
91	0xbd663198	-0.05619964
92	0xbc98a573	-0.01863358
93	0x3cca5f40	0.024703622
94	0xbb8db4c5	-0.004324528
95	0xbd1f9705	-0.038962383
96	0xbc05abbd	-0.008158621
97	0xbd135162	-0.035966285
98	0xbd0abd77	-0.033872094
99	0xba9557dc	-0.0011393982
100	0x3d4932d1	0.049120728
101	0xbd665bf6	-0.056240045
102	0x3c6db488	0.014508374
103	0xbb4dde3a	-0.0031412975
104	0xbc1c9cf2	-0.009558903
105	0x3b978d90	0.00462503
106	0x3c45a9bb	0.012064393
107	0x3ce11f72	0.027480815
108	0xbd075365	-0.033038516
109	0xbb33293b	-0.0027337808
110	0xbc7093f2	-0.01468371
111	0xbd095fbb	-0.03353856
112	0xbbe188c2	-0.006882758
113	0x3d27fff6	0.041015588
114	0x3cbb5fb8	0.02287279
115	0x3d59ae8b	0.053144973
116	0x3be4bfa0	0.0069808513
117	0xbc909884	-0.01765085
118	0xbc56315e	-0.0130732935
119	0x3c40a887	0.01175893
120	0x3bf7c8c4	0.007561775
121	0xbc1b181c	-0.009466197
122	0xbd46cff1	-0.048538152
123	0x3cdff9ee	0.027340855
124	0x3d603dbd	0.05474638
125	0x3c4d00d9	0.012512409
126	0xbd035fc2	-0.032073744
127	0xbc0b8e88	-0.008517869
128	0xbcc22537	-0.023699386
129	0x3cd4cf0d	0.025977636
130	0x3d37c88d	0.044868995
131	0x3c2b1ffa	0.0104446355
132	0xbcc7d88f	-0.024395255
133	0xbcfceb48	-0.03087391
134	0x3cd351f2	0.02579591
135	0x3d28bbee	0.04119485
136	0x3cab5617	0.020915074
137	0x3c0a59f9	0.008444303
138	0xbc9fc48d	-0.019502902
139	0x3c484641	0.012223781
140	0x3bf5d051	0.00750164
141	0x3bd3bb7a	0.006461558
142	0xbd27963b	-0.040914755
143	0xbcbf4168	-0.023346618
144	0x3c465cc8	0.012107082
145	0x3c88eb5e	0.016713794
146	0xbc108293	-0.008820194
147	0xbc944bbc	-0.01810252
148	0x3cc7b47c	0.024378054
149	0xbc6488a1	-0.0139485905
150	0x3cdaf153	0.0267264
151	0xbcddb188	-0.027062193
152	0x3be5a243	0.0070078685
153	0xbcd4b1fe	-0.02596378
154	0x3d4a3574	0.049367383
155	0xbd99266b	-0.07478031
156	0xbd18c430	-0.037296474
157	0xbbdf6c97	-0.006818365
158	0x3c2e6944	0.0106452145
159	0xbd5b2daf	-0.053510364
160	0xbd8c04bb	-0.0683684
161	0xbb74347a	-0.0037262724
162	0x3c838f1d	0.016059453
163	0x3dbaa7bb	0.09114023
164	0x3c0881b7	0.008331708
165	0x3d398ba3	0.045299184
166	0xbd158f3a	-0.036513545
167	0x3bf2af12	0.007406124
168	0xbd211680	-0.0393281
169	0x3d0916d1	0.033469025
170	0x3dae8bdf	0.08522772
171	0xbd4e54cf	-0.05037385
172	0xbd585a55	-0.052820522
173	0x3cd9fb28	0.026609018
174	0xbc5d1488	-0.013493665
175	0xbca7af3b	-0.020469299
176	0xbd173d56	-0.03692373
177	0xbd23adfe	-0.039960854
178	0xbd23900c	-0.039932296
179	0xbd3cdac7	-0.04610708
180	0x3d112a5a	0.03544078
181	0xbd53a2b7	-0.05166885
182	0xbbcd72a0	-0.006269768
183	0xbd628450	-0.055301964
184	0x3cef4496	0.029207509
185	0x3c3c2122	0.011482509
186	0xbcdb80cd	-0.026794815
187	0xbd1dda8d	-0.038538504
188	0xba8e94f2	-0.0010878129
189	0xbcb342a3	-0.02188236
190	0x3d3cd0ee	0.04609769
191	0xbc044546	-0.008073157
192	0x3cf81fd0	0.030288607
193	0x3d89f078	0.06735319
194	0x3cf03bec	0.029325448
195	0x3c596cd5	0.0132705765
196	0x3cb145c5	0.021639714
197	0x3cf5d58e	0.030009057
198	0x3d0ab018	0.033859342
199	0x3b9f5bef	0.0048632543
200	0x3905ab84	0.00012747763
201	0x3ccbfcc5	0.024900803
202	0xbcacd812	-0.021099124
203	0xbc672e32	-0.014110135
204	0xbbd49122	-0.0064870277
205	0xbcafa02b	-0.021438679
206	0xbc9cf117	-0.01915793
207	0x3d18f173	0.03733964
208	0xbcc0d634	-0.02353964
209	0xbc53eede	-0.012935368
210	0xbc5ffbf3	-0.013670909
211	0xbbcbe14a	-0.006221925
212	0xbb60d3d3	-0.0034305945
213	0x3c9c5a5f	0.019086061
214	0xbd28475b	-0.041083675
215	0xbd2570b4	-0.040390685
216	0x3cd1903b	0.02558147
217	0xbc964dc8	-0.018347636
218	0xbce3e497	-0.027818961
219	0xbd0ee928	-0.034890324
220	0xbc14952e	-0.00906877
221	0xbc048c95	-0.008090158
222	0xbd3ada1d	-0.045618165
223	0xbd190833	-0.037361335
224	0xbbcd526d	-0.0062659294
225	0x3d6470d5	0.055771668
226	0x3d96797d	0.07347391
227	0x3bbbe733	0.005734348
228	0x3d06066a	0.03272096
229	0x3d3cde4b	0.046110433
230	0x3b3ffc5b	0.0029294703
231	0x3cbb965a	0.022898842
232	0x3d31c739	0.043402884
233	0xbb7cff44	-0.0038604299
234	0x3d12ec20	0.035869718
235	0xbcffd4c2	-0.03122938
236	0xbcb07037	-0.021537883
237	0x3bc8e10a	0.0061303424
238	0x3d9bb470	0.07602775
239	0x3d5016cd	0.050802995
240	0xbc0a261e	-0.008431939
241	0xbc0bf7b6	-0.008542946
242	0xbcc19844	-0.023632176
243	0x3bc2c83f	0.0059442814
244	0xbaa57e0e	-0.0012626068
245	0xba8ea76d	-0.0010883637
246	0xbd7862d1	-0.060641114
247	0xbcb74dd4	-0.022375979
248	0xbacacbb0	-0.001547208
249	0xbc863b64	-0.016385742
250	0xbb87f2b0	-0.0041488037
251	0x3d2ed2b6	0.04268142
252	0xba8b8a8d	-0.001064615
253	0x3c55f0cb	0.013057898
254	0xbcac9d40	-0.021071076
255	0x3ce2b198	0.027672574

cnn.cnn_layers.6.bias f4 [64]
0	0x3d93fbcd	0.072257616
1	0xbda0d566	-0.078532025
2	0x3da1f4a7	0.07907992
3	0xbd89e04a	-0.06732233
4	0xbda14fb6	-0.07876532
5	0x3daa3a9e	0.083119616
6	0x3dd12902	0.102129
7	0x3db94af0	0.09047496
8	0x3dbd96db	0.09257289
9	0x3d700d43	0.058606397
10	0x3db5971b	0.08866712
11	0x3d89a79f	0.06721424
12	0x3ddace42	0.10683872
13	0xbd959d5e	-0.07305406
14	0x3ccf2c73	0.02528975
15	0x3d0bffa9	0.034179363
16	0xbda673bc	-0.08127543
17	0x3d713684	0.05888988
18	0x3db08b3a	0.08620305
19	0xbc1c1211	-0.009525792
20	0x3d0ba799	0.03409538
21	0x3d01a5ef	0.031652387
22	0x3e0ca736	0.13735661
23	0x3df6ba38	0.12047237
24	0x3c463b43	0.01209909
25	0xbce47282	-0.027886633
26	0x3d205f1a	0.039153196
27	0xbd809b42	-0.06279613
28	0x3c9a3963	0.018826192
29	0x3dc9e80f	0.09858715
30	0x3de86091	0.113465436
31	0x3ded0133	0.11572494
32	0x3d45c96e	0.0482878
33	0xba96de9a	-0.0011510432
34	0x3da7bcb5	0.0819029
35	0x3c680222	0.014160665
36	0x3dad11b5	0.08450643
37	0xbd9515ab	-0.072795235
38	0xbdbe7021	-0.09298731
39	0x3d06b1f5	0.032884557
40	0xbd50b9ed	-0.050958563
41	0xbcc736a1	-0.024318041
42	0xbc2f55c5	-0.010701601
43	0x3ce41908	0.027843967
44	0xbd333b91	-0.04375798
45	0x3d631209	0.05543712
46	0x3d241024	0.040054455
47	0x3dc95627	0.098308854
48	0x3d0adbb7	0.033900943
49	0x3da38ff1	0.07986439
50	0xbcaa96c7	-0.02082385
51	0x3daf2057	0.0855109
52	0x3d41a55a	0.047276832
53	0x3db0d5fd	0.08634565
54	0x3d99f818	0.07518023
55	0xbdb422a4	-0.0879567
56	0xbd03fbb2	-0.032222457
57	0x3b45946f	0.0030148288
58	0x3de492a0	0.11160779
59	0xbd0ab9c9	-0.033868585
60	0x3d162c63	0.036663424
61	0xbd46b6e3	-0.048514258
62	0xbde918bd	-0.113816716
63	0xbd184954	-0.037179306

cnn.cnn_layers.9.weight f4 [64, 256]
0	0xbd35a758	-0.044349045
1	0xba61aea8	-0.00086090947
2	0x3ca572dc	0.02019637
3	0xbd0d74be	-0.034535162
4	0xbd36e84a	-0.044655122
5	0xbd527471	-0.05138058
6	0x3d2b1c12	0.041774817
7	0xbd54d673	-0.051962327
8	0x3c15e488	0.009148724
9	0x3c9a68ae	0.018848743
10	0x3cdc294e	0.026875164
11	0x3da5efd5	0.08102385
12	0xbd3a4418	-0.045475096
13	0xbc10e1e2	-0.008842917
14	0x3d9353a5	0.07193688
15	0x3d3b25ce	0.04569035
16	0x3d833328	0.06406242
17	0x3da521ee	0.08063112
18	0x3cb25c2c	0.021772467
19	0x3d8f204d	0.06988583
20	0x3d2b476a	0.041816153
21	0x3c823f6f	0.015899388
22	0xbcec4883	-0.02884317
23	0xbc93e482	-0.018053297
24	0xbc6dc23c	-0.014511641
25	0xbd5b707f	-0.05357408
26	0xbd83e6eb	-0.064405285
27	0x3dd38401	0.10327912
28	0x3d8dc0f0	0.069215655
29	0x3d0c89ee	0.034311228
30	0x3d813f2a	0.06310876
31	0x3d30d163	0.043168437
32	0x3d46a239	0.04849455
33	0x3c37c554	0.01121648
34	0x3d1b5d5b	0.037930828
35	0x3d91e928	0.07124549
36	0xbb38c4ee	-0.002819355
37	0xbbff53bd	-0.007791965
38	0x391cb0ae	0.00014943138
39	0xbca328be	-0.019916888
40	0xbbb125d3	-0.0054061203
41	0xbd847b4a	-0.06468828
42	0xbcf6309d	-0.030052477
43	0x3c883130	0.016625017
44	0x3d372a2c	0.044717953
45	0xbc8e514d	-0.017372752
46	0x3d014ac2	0.031565435
47	0xbd95a8bb	-0.073075734
48	0xbd08ec26	-0.033428334
49	0x3d69f5d9	0.057119224
50	0xbbb9e057	-0.0056724953
51	0xb9c97617	-0.0003842569
52	0x3d8ad513	0.06778922
53	0x3c748c72	0.014926063
54	0xbd09c202	-0.033632286
55	0x3d8f6e85	0.07003502
56	0xbd0c4c59	-0.0342525
57	0xbd35a077	-0.044342484
58	0x3c01c1fa	0.007919783
59	0x3c1bc442	0.009507241
60	0xbbf6daeb	-0.0075334213
61	0x3cda782e	0.026668634
62	0xbb27666d	-0.0025543228
63	0x3d477d17	0.04870328
64	0xbd72f5b0	-0.059316337
65	0x38e91dab	0.00011115832
66	0x3c37425f	0.011185258
67	0x3d3893e5	0.04506292
68	0x3c94eb4c	0.018178605
69	0xbd5d564b	-0.054037374
70	0x3d8bd23c	0.068272084
71	0xbd3c7bec	-0.04601662
72	0x3d4102c3	0.047121774
73	0xbd0ed737	-0.034873214
74	0xbd70f777	-0.05882975
75	0xbcac93d1	-0.021066578
76	0x3c4fdecb	0.012687395
77	0xbd572d24	-0.052533284
78	0x3c14e8d3	0.009088713
79	0x3c87cb47	0.016576422
80	0xbd616782	-0.055030353
81	0x3be804e3	0.0070806607
82	0xbd81b38a	-0.063330725
83	0xbce6921f	-0.028145848
84	0x3d6a86de	0.057257526
85	0xbd507bc5	-0.050899286
86	0x3c71a00b	0.01474763
87	0xbd2ec2a9	-0.04266611
88	0x3c78227d	0.015144941
89	0x3d6ab2fd	0.057299603
90	0xbd0a8f7a	-0.033828236
91	0xbd608100	-0.054810524
92	0xbd852040	-0.06500292
93	0xbd10165c	-0.035177574
94	0xbc4ed9d9	-0.012625181
95	0x3c8425d5	0.016131321
96	0xbd0ea96d	-0.034829546
97	0x3d6ee6ea	0.058325686
98	0x3d597d6b	0.053098124
99	0xbd3bad05	-0.0458193
100	0x3d89ed86	0.06734757
101	0xbd127770	-0.035758436
102	0x3daaa870	0.08332908
103	0x3d961227	0.07327681
104	0x3d397952	0.045281716
105	0x3d86e9c5	0.06587557
106	0x3cbf3502	0.023340706
107	0xbd18df9f	-0.037322637
108	0x3ce3e414	0.027818717
109	0x3d8439fa	0.06456371
110	0x3d83bf63	0.064329885
111	0x3d5083ec	0.05090706
112	0xbd62df09	-0.055388484
113	0xbbb99565	-0.005663561
114	0xbb535170	-0.0032244585
115	0x3d984975	0.07435886
116	0xbcc30b08	-0.023808971
117	0xbd524def	-0.051343855
118	0xbc9b67c9	-0.018970387
119	0x3b14e73d	0.0022720837
120	0xbbd85e7a	-0.0066030594
121	0x3a26040e	0.00063330017
122	0x3b98a301	0.0046581035
123	0x3cc994bc	0.024607055
124	0xbd1f108b	-0.038834136
125	0x3c0684aa	0.0082103405
126	0xbaca66da	-0.0015442029
127	0xbda4614f	-0.08026373
128	0x3d73f20e	0.059557013
129	0x3d640b2b	0.055674713
130	0x3bc98e56	0.006151001
131	0x3d2cf3dc	0.04222475
132	0x3c4eddda	0.012626136
133	0xbd1bed8e	-0.038068347
134	0x3ce1f636	0.027583223
135	0x3ae45425	0.0017420097
136	0xbd2e34d4	-0.04253085
137	0x3d69129f	0.056902524
138	0xbca5ea9d	-0.020253474
139	0xbd7530c0	-0.059860945
140	0x3cd6c23d	0.026215667
141	0xbb3e99bd	-0.0029083334
142	0xbd3a693f	-0.045510527
143	0xbb672808	-0.0035271663
144	0x3d5f808b	0.054565948
145	0xbd3ae2cb	-0.045626443
146	0x3b34d665	0.002759361
147	0x3d0fa2d2	0.035067387
148	0xbd2fabc7	-0.04288843
149	0x3c37811a	0.011200214
150	0x3cc42f1d	0.023948247
151	0xbd5806c9	-0.052740846
152	0x3d7c7eba	0.061644293
153	0x3c8641c1	0.016388776
154	0x3d4e2552	0.05032856
155	0x3d932cc4	0.07186273
156	0x3ccce563	0.025011724
157	0xbcc9d67d	-0.024638409
158	0xbcec2da3	-0.028830355
159	0xbd145098	-0.036209673
160	0x3d419f08	0.047270805
161	0xbd5401b9	-0.051759455
162	0x3d5f9e23	0.05459417
163	0x3d483467	0.0488781
164	0x3d6a7c83	0.05724765
165	0xbda51ad0	-0.08061755
166	0x3d1459c6	0.036218427
167	0xbd6dd9f7	-0.058069196
168	0x3d88d6ed	0.06681619
169	0xbd4321d3	-0.04763968
170	0x3cf81d29	0.030287342
171	0xbd315046	-0.043289445
172	0x3ceb5893	0.028728759
173	0x3b3c153d	0.0028699182
174	0xbc704ca0	-0.014666706
175	0xbd85ccb2	-0.06533183
176	0x3d6ab406	0.05730059
177	0xbcabf9b0	-0.020993084
178	0x3d9e29ef	0.07722842
179	0x3d517a23	0.05114187
180	0x3cdd2372	0.02699444
181	0xbd7f324f	-0.062303837
182	0x3a7c4a2d	0.000962409
183	0xbd8bc142	-0.068239704
184	0x3c833cad	0.016020143
185	0x3d56310d	0.052292872
186	0x3cc4405d	0.023956472
187	0x3bf6c917	0.007531296
188	0xbc635697	-0.013875625
189	0xbc8fff5e	-0.017577823
190	0x3cc20ce6	0.023687791
191	0x3bf8597f	0.007579028
192	0xbc418180	-0.01181066
193	0xbd6c93dd	-0.0577582
194	0xbd0fdf4e	-0.03512507
195	0xbd417dfc	-0.04723929
196	0x3baf899f	0.005356982
197	0xbcb1662b	-0.021655163
198	0x3c1f52e8	0.009724356
199	0x3bdb9e9b	0.006702257
200	0xbb7dbb02	-0.0038716202
201	0x3d3e8cf5	0.046521146
202	0x3d8dc6e8	0.06922704
203	0x3d6771e2	0.05650509
204	0xbd8be634	-0.06831017
205	0xbd610f8f	-0.05494648
206	0xbcdd5e3a	-0.02702247
207	0xbc82c5d8	-0.01596348
208	0x3d0331cc	0.032029912
209	0xbd56fb33	-0.052485656
210	0x3d6bad32	0.05753822
211	0xbd3d5a6a	-0.046228804
212	0x3d97ced8	0.07412499
213	0xbd08a749	-0.03336266
214	0x3c8ce50b	0.01719906
215	0x3d5db2fb	0.054125767
216	0x3cb7314f	0.02236238
217	0x3d67e6b9	0.05661652
218	0x3d54bfff	0.051940914
219	0xbc655997	-0.013998411
220	0x3c037665	0.008023833
221	0x3b06e19f	0.0020581258
222	0x3d6b30c2	0.057419546
223	0x3cf774aa	0.030206997
224	0xbc145bf7	-0.009055129
225	0xbba08fc8	-0.0048999526
226	0xbca5f5d0	-0.020258814
227	0x3d9f1ae7	0.07768803
228	0xbca983c5	-0.020692715
229	0x3cfbf1c5	0.030754933
230	0x3d513329	0.05107418
231	0x3dcf0ea1	0.10110212
232	0x3c9c97ef	0.019115416
233	0x3cbc8d58	0.023016617
234	0xbd21613e	-0.039399378
235	0xbcf4b6b8	-0.029872283
236	0xbca6df12	-0.02037004
237	0x3d41b0db	0.047287803
238	0xbbdd411b	-0.006752146
239	0xbcca99e5	-0.024731586
240	0x3c5a343e	0.01331812
241	0x3c70bb9e	0.014693169
242	0x3d4f0de7	0.050550368
243	0xbd5072d3	-0.050890755
244	0xb9e83a97	-0.0004429414
245	0xbd110725	-0.035407204
246	0x3d7a42c5	0.061098833
247	0x3d45979b	0.048240285
248	0xbbcb9f8f	-0.006214089
249	0xbd00fcdd	-0.03149115
250	0xb998a74f	-0.00029116354
251	0x3d172838	0.03690359
252	0x3ce91259	0.028451132
253	0xbcaec98a	-0.021336336
254	0x3d4606ef	0.048346456
255	0x3cf77326	0.030206274

cnn.cnn_layers.9.bias f4 [64]
0	0xbd3319f6	-0.04372593
1	0xbdaad59f	-0.08341526
2	0xbd1a73f4	-0.037708238
3	0xbdafb3cc	-0.085792154
4	0xbbfdb7fe	-0.007742881
5	0xbd829856	-0.06376712
6	0xbde85033	-0.11343422
7	0xbdd70cdc	-0.105004996
8	0x3d2f4f32	0.042800136
9	0x3d5d96c7	0.05409887
10	0x3d6bf281	0.057604317
11	0x3de3cab9	0.11122651
12	0xbd406555	-0.046971638
13	0x3d2bee15	0.0419751
14	0xbd44d0ae	-0.048050575
15	0xbdd1c597	-0.102427654
16	0xbdc1122c	-0.09427294
17	0x3d4ab89e	0.04949247
18	0xbd88101d	-0.06643698
19	0x3dcf0d14	0.10109916
20	0x3cae2248	0.021256581
21	0x3d94bfa5	0.07263116
22	0x3d0144e3	0.031559836
23	0x3d902094	0.07037464
24	0xbdc4318c	-0.09579763
25	0x3b30e206	0.002699019
26	0x3dcc19b8	0.09965843
27	0xbc5eabfa	-0.013590807
28	0x3d15c189	0.036561523
29	0x3db3cc87	0.08779245
30	0x3d842339	0.06452031
31	0x3c7cd96e	0.015432699
32	0xbd008630	-0.03137797
33	0xbb2c8a1f	-0.0026327444
34	0xbda70dac	-0.081569046
35	0x3c7ae55b	0.015313472
36	0x3da67f07	0.08129697
37	0xbdb08961	-0.08619953
38	0xbd569772	-0.052390523
39	0xbd00b139	-0.031419013
40	0xbb509c21	-0.0031831341
41	0xbc69084b	-0.014223169
42	0xbddfb089	-0.10922343
43	0xbba5e3df	-0.0050625647
44	0xbca27696	-0.019831937
45	0xbd771142	-0.060319193
46	0x3d47fa66	0.048822783
47	0x3da40483	0.08008673
48	0x3dca19ec	0.098682255
49	0x3d8f0470	0.06983268
50	0x3c49fd15	0.012328406
51	0xbc975160	-0.01847142
52	0xbdcc0f70	-0.09963882
53	0xbcd8523c	-0.0264064
54	0x3d566b0c	0.05234818
55	0xbd210929	-0.039315376
56	0x3d99ae02	0.075038925
57	0x3de3f065	0.11129836
58	0xbcf43254	-0.029809155
59	0xbdca8ed9	-0.09890527
60	0x3c6537f3	0.01399039
61	0x3dade86a	0.08491595
62	0x3d3a5bca	0.045497693
63	0xbdb46c71	-0.08809746

cnn.cnn_layers.11.weight f4 [1, 64]
0	0x3e264aa0	0.16239405
1	0x3e243028	0.16033995
2	0x3cf4878b	0.029849788
3	0x3e13fd63	0.14452128
4	0xbe18b968	-0.14914477
5	0x3d7414bd	0.05959009
6	0x3d134ac9	0.035959993
7	0x3e00456f	0.12526487
8	0xbde53f32	-0.11193694
9	0xbdd19d52	-0.102350846
10	0xbe028fe9	-0.1275021
11	0xbdf32a0d	-0.11873255
12	0x3d652d51	0.05595142
13	0xbd70a661	-0.05875242
14	0x3dc4162f	0.09574544
15	0x3da2648f	0.07929336
16	0x3e0286a0	0.12746668
17	0xbd9d21e2	-0.07672478
18	0x3df6463c	0.12025115
19	0xbd9ff9ed	-0.078113414
20	0xbd8915b8	-0.06693596
21	0xbe347e55	-0.17626317
22	0xbd434507	-0.04767325
23	0xbdab4d3e	-0.08364342
24	0x3dc66337	0.096868925
25	0xbe1c1a69	-0.1524445
26	0xbe127a73	-0.14304523
27	0x3da2adf4	0.07943335
28	0xbddf4898	-0.10902518
29	0xbdde0c35	-0.10842172
30	0xbdff07ec	-0.12452683
31	0x3bad2048	0.0052833892
32	0x3d8f09a3	0.0698426
33	0x3d8ee01a	0.06976338
34	0x3dff91f3	0.124790095
35	0xbdc345dc	-0.09534809
36	0xbdac23a8	-0.084052384
37	0x3ca3360c	0.019923232
38	0x3e13f293	0.14448003
39	0x3ddaddda	0.10686846
40	0x3de3f6aa	0.11131032
41	0x3dc3a5db	0.09553119
42	0x3e029094	0.12750465
43	0x3dad2658	0.08454579
44	0x3ddbfa77	0.10741132
45	0x3d8585fd	0.06519697
46	0xbe2413fb	-0.16023247
47	0xbde59ded	-0.112117626
48	0xbe1fe5a2	-0.15614942
49	0xbda43b91	-0.08019174
50	0xbdee6eaa	-0.11642201
51	0xbb22f864	-0.002486729
52	0x3d811932	0.06303634
53	0x3d836a4a	0.064167574
54	0xbe088268	-0.13330996
55	0x3d91dbc9	0.07121999
56	0xbdf20d0e	-0.11818896
57	0xbdd44cf3	-0.103662394
58	0x3d514665	0.051092524
59	0x3e21a139	0.15784158
60	0xbe1ffc83	-0.1562367
61	0xbe200afd	-0.15629192
62	0xbe1a0bd1	-0.1504357
63	0x3e135a07	0.14389811
